class_1_dkf.pt (torch, 185271 bytes, 24 tensors)

inference_model.rnn.weight_ih_l0 f4 [192, 3]
00000000: 19b9 9c3c 1545 20bd 1275 a13d 0ef4 ea3d
00000010: 584e f73d ef31 cb3d 59d7 d03d f27f acbd
00000020: e31a d83d 5d53 893c 35ed 0abd 0d52 5ebd
00000030: 0f5c ae3d ec85 a6bd e426 86bd a113 a8bd
00000040: 3542 a93d 6da8 6c3d 518a f03d 3176 063d
00000050: d9f0 81bd cd46 183d c266 2c3d e3dc cd3d
00000060: 74bb a23d ba07 35bc 9c01 cd3d 0ddd 8fbd
00000070: ba2c d9bd 4a05 84bd 6706 dd3d d8b3 b7bd
00000080: 00a8 fb3d d972 f8bd 3b50 2abd 65ec a23d
00000090: 6193 af3c d2de ebbc a200 3ebd f997 c2bb
000000a0: 4f1c 573d b2f6 5c3d f305 ed3d 267e d33d
000000b0: 78ba 5abc 2aa6 b6bc 1fc0 f1bd beb7 763d
000000c0: 968b f6bc 94e7 35bd c693 66bd 99d8 9b3c
000000d0: ef01 a23d be7c d3bd 4fb5 abbd 7fe9 ffbc
000000e0: ca37 933d 94db 44bd 3d5e e3bd b663 cc3d
000000f0: 06de c3bd 69f2 e3bd 2b2f 45bd 2b47 c33d
00000100: 7d60 b7bd 1fc2 ea3d c7a7 123d 846a a0bd
00000110: 0205 bf3d 3a27 053d fe24 253d 7ea3 8e3d
00000120: 2967 c9bd cb08 0dbb a23f 46bd 1657 063e
00000130: 6ada aabb 8eca 683d cde0 62bd 114a 7f3d
00000140: 187c 58bd fd9c 14bd 8352 19bd c860 81bd
00000150: 33d3 a73d f19f b83a 33e1 3e3d 205d c2bd
00000160: 8c5f 6bbd dd84 8e3b 22b6 c93d c962 9e3d
00000170: 7fa3 b2bd 2349 a5bc acdf 273d c515 78bd
00000180: 15f7 f5bc 60d3 cfbd a6a0 c6bd 33c7 863d
00000190: ae97 a53d 2c55 983d 9063 33bd b195 fcbd
000001a0: 7349 093d 366f 82bd 0617 a13d 493d 5c3d
000001b0: fb17 64bc 5900 a0bd cbfc 8b3b 0b1d 86bc
000001c0: f4c5 adbd dc2a 73bd 066a d2bd 4f42 8e3d
000001d0: 7d54 c6bd dd40 fd3d 08c6 67bd cfc7 413c
000001e0: 2fc5 d33d b3a0 a53d 43e1 04bd 9456 543d
000001f0: 91b7 3a3d 6b08 563d 5883 cc3d 2651 efbd
00000200: a0c8 c9bc 7c80 bfbd b7ca 823c a931 9cbc
00000210: e7c4 e03d 361c ed3c 332a 503d 2409 e6bc
00000220: e215 0fbd 06e9 8a3d e11d cc3d c2c1 603d
00000230: 3748 0a3e 0f92 143b 6b4d babd ee8b d33d
00000240: 6da8 253d e3fb b73d 2928 27bd 69bc 323b
00000250: fa0f 983d 05cd 0abe a70e b6bd 7acd 68bd
00000260: ec56 9c3d 1169 d1bd 4877 c3bd b4e4 b2bd
00000270: dad5 12bd 2629 6d3d cdea 4d3d 1753 95bd
00000280: 5cea acbc e4ee 9abd 702e cf3d a814 113b
00000290: ed16 9e3d c7ef 85bd bbc7 723d 577e 5e3d
000002a0: 81dc bebd b2c3 c5bd 2460 b83c edf4 c8bd
000002b0: 4d02 893d c435 c3bd 9696 eabc d60f 4b3d
000002c0: 7e7d c23c b6ee 7b3d ab9f f43c ebc2 7bbd
000002d0: 5843 b5bc c22a 0bbd 9fa8 44bd 147b 98bd
000002e0: 2bd1 17bc cb51 16bd 044c acbd bc4d 063d
000002f0: 661b b73d 5914 00be f0d0 cebc ba03 e6bc
00000300: c0c9 69bc 760b 7d3d 0176 e33d 58fa ae3d
00000310: 843f a93d 3399 1ebd 84ea 1fbd 6285 01bc
00000320: 6b80 43bd 309c bb3c d6f9 b9bd d9b6 bfbd
00000330: 158f f63d a887 053e 486d 37bd ea16 75bd
00000340: 2ff0 9cbd 7b5f 9abd 9187 303d a7ca c63d
00000350: 35c1 77bc ef3f abbd 215c f5bd de62 d5bd
00000360: 4d5d f2bd 131e f0bd e7b4 8b3d a8c2 e33d
00000370: 56be a33d 8f3a 8a3d 2926 973d 76c9 dfbd
00000380: 5564 97bb 7e89 ae3d b5a5 33bd e1c2 943d
00000390: 519b 7e3d 8c61 b9bd 55cc 023e 05d4 8bbd
000003a0: aadc 00bd 69cf c53d 73ca d73d 8180 b13d
000003b0: bca8 ddbd 0863 8cbd 7eb9 e63d 2ef2 3bbd
000003c0: bd06 c93d 5e13 bf3c 5f93 13bd f4ee b23d
000003d0: 991a 0b3d 5149 203d 510f ad3d b759 fdbd
000003e0: 19c0 9dbb e032 04bd 8958 8ebd d8be 733d
000003f0: ceea 903d 8ddb 873d e70a 9b3d 0d3e 7b3d
0.01913123 -0.03912838 0.078836575 0.11472331 0.1207549 0.099216335 0.10197324 -0.08422841
0.10552003 0.016763384 -0.033917625 -0.05427747 0.085136525 -0.08131012 -0.065503865 -0.08206869
0.08264581 0.05777781 0.11745132 0.03282756 -0.06344766 0.037176896 0.042090185 0.100518964
0.0794591 -0.011049205 0.100100726 -0.07024584 -0.10604234 -0.06446321 0.10792237 -0.08969849
0.12287903 -0.121312805 -0.04158042 0.07955245 0.02143258 -0.028792772 -0.046387322 -0.0059385267
0.05251723 0.053946204 0.115734 0.10326795 -0.013350122 -0.02229603 -0.11804222 0.060233824
-0.030095857 -0.044410303 -0.05629327 0.01902418 0.07910525 -0.10326527 -0.08384191 -0.03123927
0.07188375 -0.04806097 -0.11101959 0.09979956 -0.09563832 -0.111302204 -0.048140686 0.095350586
-0.089539506 0.11462807 0.035804536 -0.07832816 0.09327127 0.032508112 0.04031848 0.069647774
-0.09834129 -0.0021520134 -0.04840053 0.13119158 -0.0052140253 0.056833796 -0.055390168 0.062326495
-0.05285272 -0.03628253 -0.037432205 -0.06317288 0.0819458 0.0014085752 0.046601485 -0.094904184
-0.057464167 0.0043493346 0.09849192 0.077336855 -0.08722591 -0.020176476 0.040984794 -0.060567636
-0.030025044 -0.101477385 -0.0969861 0.06580963 0.08085571 0.0743812 -0.043796122 -0.12333239
0.033517312 -0.06368868 0.078657195 0.053769384 -0.013921733 -0.07812566 0.0042720786 -0.01637127
-0.08485022 -0.059367046 -0.102741286 0.06946241 -0.096840836 0.12365887 -0.05658534 0.011827423
0.10340344 0.080872916 -0.03244139 0.05184038 0.04558522 0.05225412 0.09985989 -0.116854
-0.024631798 -0.09350678 0.015965803 -0.019066649 0.10975056 0.028944116 0.050821494 -0.02808053
-0.03493298 0.06782727 0.099666364 0.05487228 0.1350411 0.0022670066 -0.090967976 0.10329424
0.040443826 0.089835905 -0.040809784 0.0027272946 0.07424922 -0.13554771 -0.088895135 -0.056836583
0.076337665 -0.10225118 -0.095442355 -0.08735028 -0.035848476 0.05790057 0.05027275 -0.07291239
-0.021107845 -0.07565096 0.10116279 0.0022137556 0.077192165 -0.065398745 0.05927251 0.054319706
-0.093194015 -0.096564665 0.02250678 -0.09812341 0.06689892 -0.09531739 -0.028636258 0.04957565
0.02374148 0.06150695 0.029861292 -0.061465185 -0.022126839 -0.033976324 -0.048012372 -0.0744535
-0.009266178 -0.036699098 -0.08412936 0.032788977 0.08940773 -0.12507762 -0.025246114 -0.028077949
-0.014269292 0.061778508 0.11106492 0.08543843 0.08264068 -0.03872032 -0.03904201 -0.007905336
-0.04772989 0.022901624 -0.090808555 -0.09361047 0.120390095 0.1304003 -0.044781953 -0.059836306
-0.07662999 -0.07537743 0.043098036 0.097066216 -0.015121748 -0.08361804 -0.11980463 -0.10419248
-0.11834202 -0.11724486 0.06821614 0.11121112 0.07995288 0.067494504 0.07380325 -0.109270975
-0.004620115 0.08522318 -0.043859202 0.07263733 0.06215984 -0.09051809 0.12773259 -0.06827549
-0.03146044 0.09658701 0.10536661 0.08667088 -0.10823199 -0.06854826 0.112658486 -0.045885257
0.09815738 0.023324665 -0.036029216 0.08736983 0.033960912 0.03913242 0.08450187 -0.123706274
-0.0048141596 -0.03227508 -0.069504805 0.059508175 0.070760354 0.06633673 0.07570439 0.061338473

inference_model.rnn.weight_hh_l0 f4 [192, 64]
00000000: 7135 023d 50ef 843d 7afe 5a3c 7a3e 953d
00000010: 9472 a7bd a3e0 e2bc cab1 0bbe 7b6a 04be
00000020: b102 99bd e770 e5bc 178c eabc 25e5 9c3d
00000030: b96f 013e 9c48 d43d 251b e5bc 6943 a6bd
00000040: 7216 b7bc b76b 1cbd fde2 103c 1280 cabc
00000050: 7612 bc3c 7288 e83c e9e6 c83d 6802 debd
00000060: 945a 50bd db8a 1b3d 872d 8a3d 218b ef3d
00000070: e7ea 99bd 487b 43bd a870 9fbd db90 0b3d
00000080: c8de 91bc 46f9 9cbd 27a0 2bbc eb6f a43d
00000090: 1265 d8bc 7a3a 42bd 5bda 12bd 112f 7f3d
000000a0: 7a0a 9cbd e406 f6bc 5040 d3bd 682b 003d
000000b0: cb55 6b3d d539 ec3d 7cf7 3f3d 50f5 86bc
000000c0: eda9 e7bd 1a56 6ebd 0fab 443d 4827 58bb
000000d0: 9fc6 23bc f56b c6bd c062 023b 8b06 663d
000000e0: 2acb 24bd aa2e b1bc ed25 863d 50e3 10bd
000000f0: 34f9 e13c 5cad 523d ba10 433d 5ab9 b53d
00000100: 01e0 143d 0a32 a43c 7ce8 103d 779d e7bd
00000110: c392 a4bc f93d 843a 0d11 81bc 0bbe dabd
00000120: 918d 96bd 3f41 073d 2114 58bd 805e 82bd
00000130: d8ab e6bd 1669 70ba 6326 d5bc 35f9 fd3d
00000140: 220b 03be 31ec e23d 291d 933d 0fff e9bd
00000150: 6802 89bd be92 013d 03c6 a73c f2ea 153d
00000160: 9d0b 9c3c 8a00 06be 4d27 4f3d 026f 1fbd
00000170: 1263 3d3c 5b14 203c 78c0 6f3d f2bc ab3d
00000180: a3b9 8f3d fd6e 663c f6f0 d43d ebd3 cd3d
00000190: 6155 893d 7a29 9d3d cc87 ad3d 4000 703d
000001a0: 77bf cdbb af13 c6bd 3573 ad3d 0556 8cbc
000001b0: b1c0 f83d a7e2 ccbd 7b32 773c 5a33 883d
000001c0: f1b6 223d 4cd3 afbd 339b e4bc d717 18bd
000001d0: 3084 a9bd 121f 2837 0a0b d4bd e37b 663d
000001e0: 2cd4 1abd 2e3c d6bd d3d3 bfbc bc85 dc3d
000001f0: 955c 4fbd 1cde 213c 3c1f 62bc da5f c63d
00000200: fcaf 883d 69bd ceb7 86b2 dbbd 67c7 82bc
00000210: f815 8ebc 91b6 9abd f965 c3bd 1233 1d3d
00000220: 81fe bfbc 57c4 a8bd 4ed2 253d e883 74bd
00000230: cf3b 9cbd 3b7d dbbc 19d7 8abd 0424 5b3c
00000240: c05b f83d 5a6d f43d 2d85 dcbb 0e69 43bd
00000250: 9ca4 b1bb 159f 193d 11d2 a5bc ed10 0f3c
00000260: 6f30 e4bd b878 b2bd 61f3 e53c 9337 dcbd
00000270: 1b9b babd f8f7 c63d 8358 08bd 9af5 f43c
00000280: f60e 613d 444d 2ebd b535 51bd 2339 f23d
00000290: 92f8 5abd 0d4f 5d3d 543c a2bd 9600 e03d
000002a0: f86b 3c3d 9ca9 c8bd 55ba 9e3d e238 c03d
000002b0: c566 be3c 126a febd 6dc7 a7bc 378d b9bd
000002c0: adfa 39bc 000e bbbd fc4e 283d 3d54 4cbd
000002d0: ad83 e43c efd5 52bd dce0 803c e2da c73d
000002e0: b49b 8abd 2912 2a3d 5fbe 4dbd a75c c9bc
000002f0: 136d 3e3d 76ba a2bd 09eb b8bd ce2f ccbb
00000300: 1c12 d03d 9217 7dbd ff1f 593d 9287 99bd
00000310: 4afe 313d 4e1e 85bd 1018 39bd 3ed0 dd3d
00000320: 356d 76bb 6363 c33c 467e 30bb c57e babd
00000330: 0e07 823a 78fe 513d 5832 1a3c e5cc a13c
00000340: 7162 413d f84c 87bd 0abe 67bd 1aad a53d
00000350: 7f0b e23d 731e ee3c fcbc f9bd 01ef aa3d
00000360: 9803 debc 3407 a93d 15a5 903c 6596 573d
00000370: 5e76 dcbc 48db 35bd 23c2 a83d 4241 82bd
00000380: 68cf 96bd a921 0c3d cca5 783d b7ce 5e3d
00000390: 4585 b23d e35b b33d f348 87bd 5dda e13d
000003a0: 6189 c1bd 8f31 933d 72fc 9ebd 7337 233d
000003b0: 1943 f1bc ba9b 0bbd 328d ab3c 151e 273d
000003c0: d77a a63d 02f6 b4bd d579 bf3c 60b0 743c
000003d0: 34c3 0cbd bf7a 393d ae45 f23d c558 623d
000003e0: b418 e83d 6027 e93c f727 623d fa8c 22bb
000003f0: ffa4 a43c 051c 5fbd 1f14 703d d35a 3abd
0.031789247 0.06490958 0.013366336 0.07287307 -0.08176151 -0.027695006 -0.1364204 -0.12931244
-0.074712165 -0.028007938 -0.028631253 0.07660893 0.12640275 0.10365412 -0.027967045 -0.08118326
-0.02234957 -0.038188662 0.008843181 -0.024719272 0.022958022 0.028385375 0.098096676 -0.10840303
-0.050867632 0.03797422 0.06746965 0.116964586 -0.07515507 -0.047724992 -0.07785159 0.03407369
-0.017806426 -0.07664733 -0.010475195 0.08029159 -0.026415382 -0.04741905 -0.03585277 0.062300745
-0.07619186 -0.030032583 -0.10315001 0.031291395 0.057454865 0.11534468 0.04686688 -0.016474396
-0.11311708 -0.05818758 0.048014697 -0.0032982398 -0.009996085 -0.0968856 0.0019895285 0.056158584
-0.040232815 -0.021628696 0.065502025 -0.035373032 0.02758465 0.05143486 0.047623374 0.08873244
0.03634644 0.020043392 0.035377964 -0.11309331 -0.020089513 0.001008927 -0.0157552 -0.10680779
-0.073512204 0.033021208 -0.05275357 -0.06365681 -0.11263245 -0.00091709325 -0.02601928 0.12401048
-0.12797216 0.11080206 0.07183296 -0.11425602 -0.06689912 0.031634085 0.020480162 0.036601014
0.019048506 -0.13086143 0.05057459 -0.038924225 0.011559265 0.009770478 0.058533162 0.08385648
0.07017829 0.014064548 0.10397522 0.10050186 0.06705738 0.07673927 0.08473167 0.05859399
-0.006278928 -0.09671723 0.084692396 -0.017130861 0.12146128 -0.10004168 0.015087719 0.066504195
0.039725248 -0.085852236 -0.027906036 -0.03713211 -0.08277166 1.0020814e-05 -0.10353668 0.05627049
-0.0378 -0.10460697 -0.023416435 0.10767695 -0.050625402 0.009879615 -0.013801392 0.09686251
0.06674191 -2.4645315e-05 -0.1072741 -0.015964223 -0.01734446 -0.07554353 -0.09540934 0.038378783
-0.023436787 -0.08240574 0.040483765 -0.059696108 -0.07628595 -0.026793113 -0.06779308 0.013375286
0.12126875 0.1193492 -0.006729743 -0.04770761 -0.0054212343 0.037505228 -0.020241769 0.008732063
-0.111420505 -0.087144315 0.028070154 -0.107527874 -0.09111615 0.09715265 -0.033287536 0.029902268
0.05494591 -0.042554155 -0.05107661 0.11827304 -0.05345971 0.054030467 -0.07921663 0.10937612
0.046001405 -0.097979754 0.07750384 0.093858495 0.023242364 -0.12422575 -0.020480836 -0.09060138
-0.01135127 -0.0913353 0.04109095 -0.049885023 0.02789482 -0.051473554 0.015732221 0.097585455
-0.06767979 0.041521225 -0.05023038 -0.024580313 0.04649074 -0.07945721 -0.090292044 -0.0062312847
0.10159704 -0.061790057 0.05300903 -0.07496561 0.0434554 -0.06499921 -0.045188963 0.10830735
-0.0037601714 0.023851102 -0.0026930734 -0.091062106 0.0009920315 0.05126807 0.009411417 0.019751022
0.04721302 -0.066064775 -0.05657772 0.08089657 0.11037349 0.029067254 -0.12194249 0.083463676
-0.027101323 0.08253327 0.017656842 0.05263366 -0.02691191 -0.044398576 0.08240154 -0.06360103
-0.07363778 0.03421179 0.06070499 0.054396357 0.087168254 0.087577604 -0.06605711 0.110279776
-0.09450031 0.07187187 -0.07762994 0.039847802 -0.02945094 -0.03408406 0.02094135 0.040800173
0.081288986 -0.08835985 0.023373524 0.014934629 -0.034365848 0.045283075 0.118296966 0.05526044
0.11332837 0.028461158 0.055213895 -0.0024803267 0.020098208 -0.05447008 0.05861294 -0.045496773

inference_model.rnn.bias_ih_l0 f4 [192]
00000000: a05b 913d 8bae 02be 8b6b 94bd abb0 c43d
00000010: cc6d e33d 6ad0 d4bd a262 e23d d96a b2bd
00000020: 84ba a03d 7627 073e 27f1 013e 59cd c7bd
00000030: 7bec 1e3d ab85 0e3d 314a 3f3d e64e bbbd
00000040: e3bb b4bd 6e1b 13bd 09c9 06bd 0b5d ecbd
00000050: 5e85 4cbd 0dcc 703d 1f59 a1bd 970a 3d3d
00000060: 7d1e a43c ed82 e73d 1b9b 1ebc c022 e3bc
00000070: 2928 65bd 027b ae3d 268f 90bc 808e 84bd
00000080: e7e0 873d faf4 babd 2d0d bd3c 4b80 dd3d
00000090: 2f62 293d 6a8f c3bd 0d26 d93d 9bf1 823d
000000a0: 035f f6bd 7b92 d1bd 67d8 913d 46b9 adbd
000000b0: c1fb f0bb 8e1f a0bd db89 f2bd 4100 68bd
000000c0: 7413 f23d 1d6d a7bd 3ee7 f1bd 5e02 8d3d
000000d0: c089 013d 6971 90bd 24df 37bd 7315 4a3d
000000e0: 2f22 e43d 2497 d33b e45f 8fbd 1906 a13c
000000f0: 701b a8bc 941f a63d 21df b63d 3367 c9bd
00000100: 2f21 20bd 76a9 82bd 9e0d 553c 2281 3fbd
00000110: 7d51 7d3d d6c0 3fbd e197 843c d0bb 783d
00000120: 59bc 44bd 06f4 c1bb 3355 e7bc cd37 fbbd
00000130: e0aa f13d a6bf 81bd eecb ba3d 7061 0f3b
00000140: c20a 51bd 3d97 063e 0f4e da3d e405 ee3d
00000150: 0d0d 82bd 5767 823d fab6 c9bc d6f9 aabc
00000160: c98d 41bc ba0a c6bc 1adc e1bc eedd 8b39
00000170: 5f22 87bd 03b3 14bd 43e7 853d 0c7c 28bd
00000180: f433 02bb 6fee b43d 19e8 7b3d e9c9 d6bc
00000190: 0b4f e63d 34bd b83d 732f 903d 2366 92bd
000001a0: 3ed0 babd 00fa e33d f877 f93d c3d2 98bd
000001b0: 4198 933d dd8d d53d ed62 d73d bc8c c73b
000001c0: 0365 abbd 6039 30bc e42e 4c3d 2e38 e23d
000001d0: 6038 5f3d 9e5f a83d 8e68 adbd abc5 ce3d
000001e0: e0da ecbd 8a8b f33d 241d f43d 72cb 9d3c
000001f0: 7a4b a8bd 8c3f 87bd 883b 093c 0f1a 003e
00000200: 1385 4c3c 4239 213d 800a 1fbd 8ccd b9bd
00000210: 3dc6 cbbd 3b06 52bd 3d0e 813d 8d6b e53d
00000220: c27a 033d 8ba6 d13d 5498 ac3d ba56 d13d
00000230: ca07 bfbd d313 a7bd 4a0c 523d 1a48 acbd
00000240: 1da1 273c eee0 893d a430 b5bd 5e3c c2bd
00000250: 79c1 2d3d 3ed1 2abb 2a71 6c3d 496d fcbb
00000260: 21b1 82bd 4067 b53c 881e d8bd 5126 96bc
00000270: 9d52 93bd 37c6 b93d 9f46 873d df41 1a3d
00000280: 78f6 8b3d 508b 543c 54eb a03c 9f15 20bd
00000290: ddbb 30bd 27b5 703d 9a21 83bd 039c 77bc
000002a0: d6e2 04bc 9ba8 edbd 4095 843d cc1d ad3d
000002b0: 0480 16bd d0c0 a6bd 7cbf bd3d 1460 843c
000002c0: 2197 583d 7238 613d f450 123d eff7 19bc
000002d0: 7585 883d 15cd 073e 6ee8 073e aa0e c73d
000002e0: 5478 6dbc 14b0 cebc 56e3 acb9 eb24 11bd
000002f0: 0966 f7bd ef5a df3d fe33 e03d e2f3 d0bd
0.07097554 -0.12761895 -0.07247075 0.09604009 0.111049265 -0.10391314 0.11053969 -0.08711786
0.07848075 0.13198647 0.12689649 -0.09755964 0.038799744 0.034795444 0.046701614 -0.09145908
-0.08824899 -0.03591483 -0.032906566 -0.11541184 -0.049931876 0.058788348 -0.078783266 0.046152677
0.02003407 0.11304269 -0.009680535 -0.027726531 -0.055946503 0.08519556 -0.017646383 -0.06472492
0.066346936 -0.09128757 0.023077572 0.108154856 0.0413534 -0.095488384 0.10602961 0.06393739
-0.12029841 -0.10233017 0.071213536 -0.08482604 -0.00735423 -0.078185186 -0.118427 -0.056640867
0.11820117 -0.081751086 -0.11811684 0.06885217 0.03162551 -0.07052881 -0.044890538 0.04933686
0.111393325 0.0064572264 -0.070007116 0.019656228 -0.020520896 0.08111492 0.08929277 -0.09834137
-0.039094146 -0.06379978 0.013003735 -0.04675401 0.06184529 -0.046814762 0.016185703 0.060725987
-0.048031185 -0.0059189824 -0.028238868 -0.122665025 0.1180017 -0.06335382 0.09120928 0.0021878146
-0.05103565 0.1314363 0.1065942 0.11622217 -0.063501455 0.06367367 -0.024623383 -0.020871084
-0.011813589 -0.024175037 -0.027570773 0.00026677496 -0.06598353 -0.03630353 0.0653825 -0.041133925
-0.0019867392 0.0883454 0.061500642 -0.026219325 0.11245545 0.09020463 0.070403 -0.07148387
-0.0912175 0.11131668 0.12181085 -0.074620746 0.072067745 0.10427449 0.105169155 0.006089775
-0.08368876 -0.010755867 0.049849406 0.11045872 0.054497123 0.082213625 -0.08467208 0.10096296
-0.115651846 0.11891849 0.11919621 0.01926205 -0.08217521 -0.066039175 0.00837601 0.1250994
0.012482899 0.039361246 -0.038828373 -0.09072408 -0.0994992 -0.051275473 0.06301544 0.11202154
0.032099493 0.10236844 0.08427492 0.1022162 -0.093276575 -0.08158078 0.05128125 -0.0841219
0.0102312835 0.06732355 -0.08847168 -0.094841704 0.042420838 -0.002606466 0.05772511 -0.0077034575
-0.06381441 0.02214396 -0.105526984 -0.018328818 -0.071934916 0.090710096 0.06605267 0.037660476
0.068341196 0.012972668 0.019643463 -0.03908312 -0.04314791 0.05876651 -0.06402893 -0.01511288
-0.0081107225 -0.116044246 0.0647378 0.08452949 -0.03674318 -0.08142245 0.09265038 0.016159095
0.052878503 0.05498547 0.035721734 -0.009397491 0.0666608 0.13261826 0.13272259 0.09719594
-0.0144940205 -0.025230445 -0.00032975775 -0.0354356 -0.120800085 0.10906016 0.10947417 -0.10202767

inference_model.rnn.bias_hh_l0 f4 [192]
00000000: aeb9 b7bd 98dc d5bc 2fda f9bd 873c a33d
00000010: 8b81 ca3c 6649 053d bd66 583c d30c d03d
00000020: 47a0 6d3d 70d5 a33a c282 12bd 5bfd ab3c
00000030: 60e2 df3d 4216 04be bac1 f03d 50dd dabd
00000040: b768 a4bd 426d 71bd acba 063e 7e5e 86bc
00000050: 2e63 f4bd 7de8 22bd 11b3 263c 4e7f c4bd
00000060: 0dbb fe3b 854c 98bd 7778 05be cd27 143c
00000070: f902 debd f0a5 beba ae2b 83bd fad1 f63c
00000080: 3564 9b3d 5a66 023e 7598 ae3d f18c 0dbd
00000090: b0ea f1bd 6307 873b 5401 eabc 1f55 f43d
000000a0: 60cf 5a3c a189 ba3d 9f7c 9b3d 3a16 85bd
000000b0: d547 39bd 1a27 97bd 81c2 713c 3fac edbc
000000c0: 4e81 e03d 89d7 9cbd 94f1 be3d a0bc 823d
000000d0: 0dd8 dd39 df5b a3bd 2a1a d63d 3b26 843d
000000e0: 39d6 443d 07e2 aabd 7e22 be3d d00b 2bbd
000000f0: 435a c2bd 3088 33bc d1b0 fbbd 1fe5 85bd
00000100: d644 dd3c b574 76bd 4bdb 82bd 4c6c 823d
00000110: 1688 de3c e670 0a3d b5ab 143c b3c3 bd3d
00000120: d018 17bd 12a9 f4bc 62e3 833d 2137 acbd
00000130: 0c4c 3fbd 8700 6d3d 285a cb3d 8eb8 93bd
00000140: af14 f9bd 0344 ba3b cc5f be3c 0306 6dbc
00000150: bc24 c43d bd63 cf3d 9d61 f23d 73c8 e63d
00000160: 594b debd 74fd e1bc 9850 9e3d c1b3 93bc
00000170: 5b70 8d3d 63d0 47bd 4f53 bebd 6c32 3a3d
00000180: c019 d9bd 4702 9b3d cfb4 ee3c 2663 f93d
00000190: 4e3e ec3b 3948 03be c782 983d 3c77 14bb
000001a0: 68bd 223a a873 f73c 2ff8 6f3c 1588 b03d
000001b0: 4b81 8f3d 4bf7 35bd 2793 2fbc 410e 73bd
000001c0: dcf5 89bd 8bfc 993c dc37 f9bd 9a51 803c
000001d0: c41e 733d cfec 07be 54d5 753d fed2 86bc
000001e0: 1e93 a4bd 8885 3cbc e39c 8e3c 1865 6cbc
000001f0: 96d5 ccbd 6d13 7bba 3ee9 bdbd 7d86 b53d
00000200: 8957 b8bd 1d18 bf3d 9561 cc3d 2b61 963c
00000210: 4143 acbd b6d6 e9bc 7888 ee3c 6895 e53c
00000220: bb7c d5bd 463d c23c 3158 09bd fe74 78bd
00000230: b89c 90bd e421 cabd c503 cfbd 697e 9fbd
00000240: fbf1 e03d 83b3 e73d ccc3 ed3d a7bb 233d
00000250: 118f 3dbd 7985 98bd a4b7 763d 02dd 76bd
00000260: 2466 c53c 1703 3abd ea3a dcbd b7a8 d3bd
00000270: 460a 92bd eeb3 b9bd 419c b9bd 84d1 e83c
00000280: 62b9 313d 6dd1 003e d5be 7bbd 7d80 f13c
00000290: 6640 5b3c 5b44 cb3d 0f19 33bc bbf9 883d
000002a0: 3038 d03c 7638 f6bd 3030 f73c 1eda 633d
000002b0: e360 95bd 2e11 403d 123b 0dbd 5c8a b8bd
000002c0: c5b1 a6bd c331 083e f5f6 4cbd 96c2 7bbd
000002d0: 5850 f9bd bbe6 aabd ab96 d9bd b933 d9bd
000002e0: 2a0e b93c 246c aa3d fc0a 8fbd 1094 fb3c
000002f0: 76de ae3d 1f1d aebd 451d b23b 5920 d7bd
-0.089709625 -0.026106164 -0.12199818 0.07970529 0.024719974 0.0325407 0.013208088 0.10158696
0.05801418 0.0012499522 -0.03576923 0.020994833 0.109318495 -0.12899116 0.117557004 -0.10686743
-0.08027785 -0.058942087 0.13157147 -0.01640248 -0.119329795 -0.0397725 0.010174529 -0.09594594
0.007773763 -0.0743647 -0.13034235 0.009042692 -0.10840411 -0.0014545303 -0.064048156 0.030129422
0.07587472 0.12734357 0.085251726 -0.03455824 -0.11812341 0.0041207536 -0.028565086 0.11930298
0.013355106 0.09108282 0.07592129 -0.0649838 -0.04523452 -0.07380505 0.014755846 -0.029012797
0.10962163 -0.076582976 0.09323421 0.063836336 0.00042313375 -0.079765074 0.10454209 0.064526044
0.04805586 -0.083438925 0.092839226 -0.041759312 -0.09489872 -0.010957763 -0.122895844 -0.06537842
0.027010363 -0.060169894 -0.06389483 0.06368312 0.0271645 0.033799075 0.009074141 0.09265842
-0.036888897 -0.029865775 0.06439854 -0.084089525 -0.046703383 0.05786183 0.09929305 -0.072129354
-0.12162148 0.005684377 0.023239039 -0.014466765 0.09577319 0.101264454 0.118350245 0.112687014
-0.10854215 -0.027586676 0.07730216 -0.01803005 0.06906196 -0.048782717 -0.092932336 0.045458242
-0.106006145 0.07568794 0.02913895 0.12177114 0.0072095757 -0.1282052 0.07446819 -0.0022654077
0.00062080333 0.030206516 0.014646574 0.086197056 0.070070826 -0.04442529 -0.010716236 -0.059339765
-0.06736347 0.01879718 -0.121688575 0.01566391 0.059355512 -0.13273929 0.0600179 -0.01645803
-0.08035873 -0.011506446 0.017408794 -0.0144283995 -0.10001676 -0.0009577785 -0.09273003 0.08863542
-0.09001071 0.09330771 0.0997955 0.01835688 -0.08411265 -0.028544765 0.029117808 0.028025344
-0.10424181 0.023710858 -0.03353137 -0.060658447 -0.07061142 -0.098697454 -0.10108141 -0.07787783
0.10983654 0.11313536 0.11609611 0.03997388 -0.046279017 -0.07447333 0.060233727 -0.060269363
0.024096556 -0.045413103 -0.107534245 -0.10334914 -0.07130866 -0.09067522 -0.09063006 0.028420217
0.043389685 0.1257989 -0.06146129 0.029480213 0.013382053 0.09925147 -0.010931267 0.06688257
0.025417417 -0.12022488 0.030174345 0.055627935 -0.0729387 0.046891384 -0.034480162 -0.09010765
-0.081393756 0.13300233 -0.050040204 -0.06146487 -0.121735275 -0.083447896 -0.10624441 -0.106055684
0.022589762 0.083214074 -0.06984517 0.03071025 0.08538525 -0.08501648 0.005435618 -0.10504217

inference_model.rnn.weight_ih_l1 f4 [192, 64]
00000000: 8ec4 013e fc04 843d ec58 dd3c 05ea 243d
00000010: be99 083e ba48 abbd 33eb f63d 6a7f 06bd
00000020: eb79 01bd 9c42 333d 02d1 d3bd 9446 83bd
00000030: 9c25 003e aea6 6abd fbaf 8e3c bf85 733d
00000040: 06d9 04be 3cd6 f9bd 1ebe 50bd b336 cbbd
00000050: 3ff1 acbd 72d9 193e de1e 3cbd 1426 6c3d
00000060: b21f 693d 847e 4d3c b9aa 91bc 416d c53c
00000070: 3f0a 84bd bdbf 573b d311 79bd a47d b2bd
00000080: 7778 aa3d 8360 13bd 144b e53d f201 2ebd
00000090: 2744 24bd c42d 8fbc abb0 e23d 93ec 363d
000000a0: acf1 383d ba2c 1ebd ad1a a13d ba6a 613d
000000b0: 9dad c7bd 1859 c03d b6fd d53d 6e61 ddbd
000000c0: 12ac b2bb 16ec c93c 5ee3 34bd f6ba af3c
000000d0: 4496 383d f3fd a5bd 51a7 023d edb7 8d3d
000000e0: 178e 663d ebc1 a13d f43d f23d 79e6 be3d
000000f0: fb67 893d 0f8c 75bd 934d a13d 2294 e83d
00000100: b58e 903c 88a9 303d 8732 b9bb cbd6 14be
00000110: e499 74bc 292f ddbd 4bff 593d f795 b83d
00000120: 08fd fe3c 4f12 fbbc a582 b9bd 6d01 a83d
00000130: 92a5 bf3d 6382 39bd 54d7 cc3d d052 e1bd
00000140: a95f afbd e5a6 9bbd bb51 b13c 98f7 573d
00000150: d34e dfbd e2e4 f93d 4abd b13d cde1 243d
00000160: 38ae 0e3b b5c2 bfbd d96e 50bd 86bf ed3d
00000170: 8ce0 323d 9095 08be c2ba a23d 3ed5 ae3d
00000180: 770b b1bc a391 963d daca ccbc 75f0 ab3d
00000190: 3c45 b83d 5877 aabc 85b0 bcbd 9f5f 703d
000001a0: ab4a 96bd 0c16 a73b dc29 a1bc 7a95 fc3c
000001b0: 65c7 b63d 4676 43bd e536 373d 5acc 8ebd
000001c0: 8d3b d23c fb53 96bd b56a e3bd e995 4e3c
000001d0: 0408 b73c 8e2c f13c 5879 c8bd cc96 b43d
000001e0: f443 9dbc 31e2 733c d00a 0e3d ccbe e63d
000001f0: 755a 853d 6a0c b03d 0a3f f03d ffce ae3d
00000200: facf 1dbb 8889 053e 0c24 513d 56af 5d3d
00000210: 6e0b 34bd 2379 c03d 69de 36bd 1dd8 203d
00000220: a91d 14bc be05 4b3d a7c1 6cbd 4177 223d
00000230: 0018 fb3d 0f3e c4bc f6ab 63bd 5dbb f7bc
00000240: 4a83 e93d d681 fc3c 9a6b 2b3d aa88 9abd
00000250: 26dd 433d 5e31 bdbc 86fb 2b3a fece 913d
00000260: 30a2 b53d 37a2 00be 5700 c13c b06d 983d
00000270: ad36 5dbd 5e4f 38bd fb44 793d 318a 9c3c
00000280: 4852 8d3d feef c43d 6e44 47bd 3752 aabd
00000290: 6d66 26bc b022 6c3d b24c b4bb 8707 9ebd
000002a0: 1800 4abd b0fa db3d 1e22 02be e559 d53d
000002b0: 028d 3fbd a983 6ebd 2152 11bd 3c92 9ebd
000002c0: 5c8a 573c 5fcf a13d a19c 18bd 35e9 bbbc
000002d0: 3c59 48bd 332c 26bd 0c84 133c 1104 983d
000002e0: aacf ba3b 599b a4bd dc85 d9bd 6682 a33d
000002f0: edf8 2c3c ef07 97bd be53 a73d d055 44bc
00000300: 9ae3 a33d b0c6 013d 0d66 d4bd fb3c dfbd
00000310: c42f 933d e35f d8bc 3176 893c fc25 00be
00000320: b33a 593c f518 e43b 3b78 fbbd 455f 823d
00000330: 3473 f93d 729f ff3d 42d5 c7bd 3e5a 9a3d
00000340: ec39 893d 9809 ed3d 5786 8bbd 7398 fd3d
00000350: 562e 143d 8548 d13d dcbd e2bd c1fb 023d
00000360: 4e48 173e 8f20 85bd f7c4 093e 4268 78bd
00000370: feba 273c 1466 0abe 3d45 28bd a04b 78bc
00000380: e6b4 4d3c 2ab3 d8bc 5a4e b43d 770a 693d
00000390: 7891 c73b 0267 f4bd df23 be3c c87c 343d
000003a0: 5ac5 40bb caac 37bd 00b2 c3bb 042b d93d
000003b0: e43c 213d a9e6 f43b 817e 863d 9023 b53d
000003c0: 8328 b2bd b443 d4bd 6516 d73d c007 60bd
000003d0: 865c cbbd 8422 c7bd 4136 d53d f8f0 9c3d
000003e0: 173f 3cbd db8c 213d d07a 973d 8c77 70bd
000003f0: a58a f9bd 9ac0 0dbd 1f8a bf3d 98c1 3dbd
0.12672636 0.06446263 0.02701994 0.04026224 0.13339898 -0.08363481 0.120565794 -0.032836355
-0.03161041 0.043764696 -0.103425995 -0.06409946 0.12514347 -0.057287864 0.017417898 0.059453722
-0.12973413 -0.12199065 -0.05096256 -0.099225424 -0.084444515 0.15024355 -0.045927875 0.0576535
0.056914993 0.012542371 -0.017781602 0.024099948 -0.06447267 0.0032920681 -0.060808014 -0.0871537
0.08323758 -0.035980713 0.11195961 -0.042482324 -0.040104058 -0.017477877 0.11068853 0.04465921
0.04515235 -0.038616873 0.07866416 0.055033423 -0.09749911 0.09391993 0.10448782 -0.10809599
-0.0054526413 0.024648707 -0.044162147 0.021451455 0.04506518 -0.081050776 0.031897847 0.06919847
0.05628785 0.07898315 0.11828223 0.09321303 0.06709286 -0.059948023 0.07876124 0.11356379
0.017646173 0.043130428 -0.0056517753 -0.14535062 -0.0149292685 -0.10800011 0.053221982 0.090129785
0.031126514 -0.030648379 -0.090581216 0.08203397 0.09357752 -0.045290362 0.10002008 -0.11002123
-0.085631676 -0.07600192 0.021645417 0.05272636 -0.109037064 0.12201859 0.08678682 0.040254403
0.0021771323 -0.09363309 -0.050886963 0.11608796 0.043671176 -0.13338304 0.079457775 0.085367665
-0.021611912 0.07351997 -0.02499907 0.08395473 0.089975804 -0.02080886 -0.09213356 0.05868494
-0.073384605 0.0050990637 -0.01967328 0.030832995 0.0892475 -0.047720216 0.044730086 -0.06972571
0.025663162 -0.07340237 -0.11104337 0.012608984 0.02234269 0.02944019 -0.097887695 0.08817825
-0.019197442 0.014885471 0.03467828 0.1126686 0.06511394 0.08596118 0.11730774 0.08535575
-0.0024080263 0.13040745 0.051059768 0.05412229 -0.043956213 0.09398105 -0.0446457 0.0392686
-0.009040275 0.049566023 -0.05780187 0.03966451 0.12260437 -0.023955373 -0.055583917 -0.030240709
0.114019945 0.03082363 0.041850664 -0.07545598 0.047818325 -0.02309483 0.0006560612 0.07119559
0.088688254 -0.1256188 0.023559732 0.07442796 -0.05400722 -0.044997565 0.0608568 0.019108864
0.069004595 0.096160874 -0.048649244 -0.083164625 -0.010156256 0.057650268 -0.005502307 -0.077162795
-0.049316496 0.10741174 -0.12708327 0.10417537 -0.046765335 -0.05823103 -0.035478715 -0.07742736
0.013155546 0.07900881 -0.037258748 -0.02293835 -0.048913226 -0.040569495 0.00900365 0.074226506
0.005701025 -0.08037443 -0.10621235 0.07983856 0.010557395 -0.0737456 0.081702694 -0.01198335
0.08002396 0.031683624 -0.10371027 -0.10900303 0.07186845 -0.02641291 0.01677999 -0.1251449
0.013258624 0.006960983 -0.122787915 0.063658275 0.121801764 0.12481584 -0.097574726 0.075367436
0.06700501 0.115740955 -0.06812733 0.12382593 0.036177002 0.1021891 -0.11071369 0.031978372
0.14773676 -0.06500351 0.13454042 -0.060646303 0.0102374535 -0.13515502 -0.041081656 -0.015154749
0.012555337 -0.02645262 0.08804007 0.056894746 0.0060903393 -0.1193371 0.023210464 0.044064313
-0.0029414506 -0.04484252 -0.005972147 0.10603908 0.03936471 0.007473786 0.065670975 0.08844674
-0.08699133 -0.10364476 0.10502318 -0.05469489 -0.09929757 -0.0972338 0.10410739 0.07663149
-0.045958605 0.03944097 0.073964715 -0.05870776 -0.121846475 -0.034607507 0.093525164 -0.046327204

inference_model.rnn.weight_hh_l1 f4 [192, 64]
00000000: ea97 3ebd eb8b cd3d c9ee 943c f3ca a0bd
00000010: e2a6 a8bd 44d3 afbc 9903 59bd 9598 ff3c
00000020: 3336 05bc c105 183d 2512 f3bc 36c3 8abd
00000030: a599 25bd fafe faba bade a6bd c635 92b8
00000040: fd17 0b3e 5a77 153e ff21 8dbc dd08 013e
00000050: 3551 a53d cc9f 12be 70eb 67bc 4ceb a73d
00000060: 1c75 b93d 21e7 3bbd 41b3 0d3e d041 80bd
00000070: f008 a53d 9339 13be 2b30 ca3d 1364 c3bc
00000080: be3e 9fbc d9b2 85bd bb1d 88bd 8c1e 2bbd
00000090: df20 6d3c 95e2 203d 5968 fa3c 8fdd 063e
000000a0: fa3d 2ebd 0f2f 0bbe 416d 9fbd edae 93bd
000000b0: 367f a63d e18a 2b3d 4013 0b3e a843 e63c
000000c0: 1333 0e3d 27c9 ef3d 1706 133d 93b5 8bbc
000000d0: 6853 993d 7cfc a4bc 7387 b73d b180 11be
000000e0: 5c60 663d 10d8 aebd 9e34 24bd cd7e 303d
000000f0: 9782 773c 879b d23c bf38 a43d f0b1 c2bd
00000100: 2065 13be 350f 963c 54ce 953d c904 7c3d
00000110: 3a38 b43d 9649 ad3d c8a6 313d a398 823d
00000120: 21cb 9f3d 550f c93d b63b a53d e625 92bd
00000130: c02b 143e c133 883d b482 a8bd 949a 223d
00000140: 10a4 5abc 48ea 073e 8699 303d 9fce 1b3d
00000150: 0c34 08be a15f 45bd db1f 803d 5592 d53b
00000160: 3487 9b3d 8136 343a ad01 43bd c30f ae3d
00000170: 2a40 e63c 916f 73bd e3ff 7e3c 6a64 003d
00000180: 07be c83d 2a2f bcbd 4024 a3bd cfb8 11bd
00000190: f2ba 7a3d bf13 25bd ec3d 123e 8e1e c8bd
000001a0: d6e2 973c 520e c0bd 8814 0fbe 9987 4cbd
000001b0: c0b6 34bd 7c24 d5bc 53be a83c 734f b93c
000001c0: d2f8 0e3e 8d40 063e 084c 4a3d 8c61 82bb
000001d0: 8781 94bd ccfb bb3b dd8e 873d d5b3 a1bc
000001e0: 3351 0e3d e3e6 b33d ad10 bbbd 7fa2 28be
000001f0: 89a5 8c3d 3dde 78bd 2ce2 673d 5e04 8a3d
00000200: 7034 5cbb 7c50 413d f884 84bc 4d09 54bd
00000210: 7a61 2abd 4272 eb3d 4557 d6bd e943 aa3d
00000220: e506 07be f06e 7fbc e949 68bd b9ac a0bc
00000230: 14e1 923b e7eb d1bd 9614 97bd 379f 9e3c
00000240: 2eac 85bd 5b5d f43d 0b2e b63b ea21 fe3d
00000250: 99b5 993d ea7e 653c 6ea0 fbbc 35a2 1cbe
00000260: a35a 6fbd fab5 a2bc e49e 9b3d 9817 e73c
00000270: 5842 e0bc 2e4f 01bd 3209 3e39 4a31 bbbd
00000280: 0c8e 543c 50e5 42bd cb7b 54bd 2b16 be3d
00000290: 5175 7cbd 6dda e23c 7775 1ebc a2b7 d53c
000002a0: 8831 dc3d 141f 0abe 9a9f cd3c 90fd 03be
000002b0: 0588 d23a 10ab 7cbd fff6 d9bd 9cb4 b4bd
000002c0: 36b5 bfbc b01a a53d daf3 b93d 6219 c73b
000002d0: 817f edbd bc9d ec3d e824 f73b 7c99 8f3d
000002e0: 3d03 7e3c 214a 7d3c da2e 12bd ec74 57bd
000002f0: 1c8c 0b3d 0bec 92bd f97d 273c 87f2 f73d
00000300: d663 de3c c455 89bc 74f3 02be d147 273d
00000310: 68da 173e 58e3 f8bc 91d3 4e3d e162 20bd
00000320: 8c2a a53c 745b cfbd dd6b 9a3d d455 14bd
00000330: 6171 d53d f730 74bd 94ac cbbd 4e34 1e3d
00000340: ba77 bbbd 54f2 dc3d 9c14 f4bd 12fa 013d
00000350: 7be9 dbbc fa3e c7bd 9164 4fbc f620 973d
00000360: 8cc3 b33d e7c4 0b3e 5815 99bd 1927 80bc
00000370: 6765 b63d 452f acbd bc88 3d3c 7ef5 c0bd
00000380: 3df3 cf3c 5ccb 123d 21a6 f03d 5f2c b6bd
00000390: b176 263d 4a4c ebbd 5499 5abd a797 c93d
000003a0: 2888 ebbc 077c b1bd 2c74 193d 6542 203d
000003b0: 9134 9d3d 868c ec3d 7ca2 99bc 0d1e cf3c
000003c0: 181c 003e e77a dd3c 0a50 b73c d830 ac3d
000003d0: 0d88 bcbd 7ac5 a93d ab96 d0bd 668f 6f3d
000003e0: ebd2 b0bd bd59 d4bc bcb8 933d b27e 0cbe
000003f0: a652 1c3e 9797 f53c ed0a afbd 1971 cf3c
-0.046531595 0.10036453 0.018180268 -0.078512095 -0.08234955 -0.021463044 -0.052981947 0.031200686
-0.008130598 0.037114862 -0.029671738 -0.06775515 -0.04042973 -0.0019149475 -0.081479505 -6.9718386e-05
0.1358337 0.1459631 -0.017228125 0.12601037 0.0807213 -0.1431877 -0.014155254 0.08199176
0.0905554 -0.04587472 0.13837911 -0.06262553 0.08058345 -0.14377432 0.098724686 -0.02385143
-0.019439097 -0.06528253 -0.06646296 -0.04177718 0.014473169 0.039278585 0.030567335 0.13170455
-0.042539574 -0.1359217 -0.077845104 -0.07211099 0.08129732 0.041880492 0.13581562 0.028108433
0.034716677 0.11708289 0.03589448 -0.017054355 0.074866116 -0.020139925 0.08961382 -0.14209248
0.05624424 -0.085373044 -0.040089242 0.043089677 0.015106819 0.025708927 0.08018636 -0.09506595
-0.14394045 0.018317798 0.073147446 0.061528 0.08799787 0.08461301 0.043371946 0.063767694
0.07802416 0.098173775 0.080680296 -0.07136135 0.14469814 0.06650496 -0.08228055 0.0396982
-0.01334478 0.13272965 0.04311516 0.038038846 -0.13301104 -0.048186902 0.06256076 0.0065176883
0.07594147 0.0006874577 -0.04760902 0.084991 0.028106768 -0.05943257 0.015563938 0.031345762
0.0980187 -0.09188683 -0.079658985 -0.035576638 0.06121344 -0.040302034 0.14281434 -0.09771453
0.018540781 -0.093777314 -0.13972676 -0.049934004 -0.044119596 -0.026018374 0.020598566 0.022620892
0.13962105 0.13110562 0.049388915 -0.0039789136 -0.07251268 0.0057368036 0.06619046 -0.01973907
0.034745406 0.087842725 -0.0913404 -0.16468237 0.06867511 -0.060758818 0.05661218 0.06739114
-0.003360059 0.047195897 -0.016176686 -0.051766682 -0.041596867 0.11496402 -0.10465864 0.08313734
-0.13186224 -0.015590414 -0.05671111 -0.01961361 0.004482398 -0.10250073 -0.07376973 0.019363029
-0.06526981 0.11931869 0.005559688 0.12408812 0.0750534 0.014007309 -0.030716147 -0.15296252
-0.058436047 -0.019862164 0.07598665 0.028209493 -0.027375385 -0.031569652 0.00018123238 -0.091402605
0.01297332 -0.04758197 -0.05187587 0.09281572 -0.06163532 0.027692044 -0.0096715605 0.02608854
0.10751635 -0.13488418 0.025100518 -0.12889695 0.0016062265 -0.061686575 -0.10642814 -0.08823511
-0.023401838 0.08061731 0.09079714 0.006076024 -0.11596585 0.11553523 0.0075422414 0.07011697
0.015503702 0.015459568 -0.035689212 -0.05260174 0.034069166 -0.07173928 0.010222905 0.12106805
0.027147215 -0.016764529 -0.12788182 0.040839974 0.14829409 -0.030381843 0.050494734 -0.0391568
0.02016189 -0.10124865 0.075401045 -0.036214665 0.10422016 -0.05961701 -0.09945026 0.0386241
-0.091536954 0.10788408 -0.119179934 0.031732626 -0.02684473 -0.09728809 -0.012658254 0.07379334
0.08777532 0.13649331 -0.07474774 -0.015643643 0.0890606 -0.084074534 0.011568245 -0.09421824
0.02538454 0.03583847 0.117504366 -0.08895182 0.040640537 -0.1148916 -0.05336888 0.098433785
-0.028751448 -0.086662345 0.037464306 0.03912582 0.07676042 0.1155024 -0.018754236 0.025282884
0.12510717 0.027036143 0.022377033 0.08407754 -0.09205637 0.08289619 -0.10184988 0.058486365
-0.086339794 -0.025921697 0.0721297 -0.13720205 0.15265903 0.02997951 -0.08547006 0.025322484

inference_model.rnn.bias_ih_l1 f4 [192]
00000000: 9de8 aa3d 4c75 073e 5fdc 02bc 9486 653c
00000010: 350c 5d3d feb1 073e 5df1 21bd 08d0 093e
00000020: b7c7 9d3d d83e 8fbd 8f04 8fbd 952f 563c
00000030: 6562 a4bd 0e48 183d 7c7d 183e bd78 00bd
00000040: cfb8 323c 793d 84bd c1fe f83d a1e1 933c
00000050: 34f6 0b3e 80ee a03d aa81 55bd ac06 173c
00000060: 5eac 3dbc 9cdf b3bd d818 a13d a2e5 c03b
00000070: a10c de3c fa9e b23d 9a70 1c3d 5bfb b53d
00000080: d296 a53d bf17 2fbd 1795 9ebd 1043 b6bd
00000090: 442e bdbd 9715 25bd d792 28bd 3768 edbd
000000a0: 7fea 83bd 3ea7 c5bc 71db 0c3d 90dd e4bc
000000b0: 92c3 ba3c 9ba7 f5bd 756d 29bd a8ba 133e
000000c0: 0f99 213b fba0 88bd 9ab3 c6bd d6a4 b6bc
000000d0: 85b5 4a3d 77da 963d 4bcb 233d 52e2 123e
000000e0: 3196 ba3d 5d3a fe3d 6ae3 323c 03e6 8f3d
000000f0: 17f2 22bd 16b1 873d dc6e cc3d 97d6 09bc
00000100: 0b34 5abe f1dd 0ebc 9b91 9cbd 9212 4bbe
00000110: c7b7 53be a1ad 86bd 66e2 d7bd 741e a2bd
00000120: 679a 213c f502 903d 3967 62be 2e5d 4bbe
00000130: a1c3 513c 7975 d73c 02de b1bd c5f0 e0bd
00000140: 83df f0bc db35 06bd 70be 00bc beb6 cabd
00000150: bf2d bebd c188 67bb 9eb3 39bd cbed d8bc
00000160: 1b6d 6bbe c947 babd f663 0abe 5cef 0dbe
00000170: 2471 38be 38f8 c03c b4b9 a7bd 5f86 4abd
00000180: 6249 93bd 0608 efbd 6aed 5ebd fd64 1abe
00000190: de6d 63be d1c8 1abe d679 0ebc eb1c 6bbd
000001a0: 91f6 59be 28b5 33bd e46e 12bd b899 5fbe
000001b0: 41dc b1bd ad71 4fbd b23e 4fbd f39d 62be
000001c0: d590 f4bd 4aa9 c3bd d752 82bd d7a5 4cbe
000001d0: 1cc2 c7bd e53b 0ebd 1ab7 58be c282 3cbe
000001e0: bda0 28be da1a 74be f1b2 43bd 7ab9 11be
000001f0: 2954 9e3a e4b3 eebd c586 6f3d 7f9d 3cbe
00000200: 737f d6bd 999a 5abd 8920 913d 69b9 c3bc
00000210: 4e50 283c a32c 97bc 20c3 ecbd f825 c5bd
00000220: b87b 7f3c cd71 be3d 9925 4b3c bbd5 8f3d
00000230: f90f e43b f2ac 1ebe f242 3b3d 967e 553d
00000240: 1a1b 33bd 1665 9bbd 9ab3 d6bd 8929 1c3c
00000250: a3d3 893d 26df 00be c96c 7cbd 13ac 85bd
00000260: 64bf cbbd e905 b73d abf1 66bd 42c3 e33d
00000270: c6ac 8bbd b8c9 ddbc c6fc 8cbd aeb2 1bbe
00000280: e557 8abd c00b 8f3d 644a fb3c 47d9 93bc
00000290: e651 a03d cf36 a13c 0b38 e13d 7000 babc
000002a0: 0479 e63d fc11 a5bc f5a3 5cbc 3cf4 ecbb
000002b0: 0742 09bd 4e09 8a3d d999 533d c0d0 d73d
000002c0: 25f1 0f3e 0b69 013d 7d41 92bb 4227 213c
000002d0: 076e 2f3d 3a5e 86bd f32c 12be b209 b73d
000002e0: 176a 77bd 03e7 d33d 68cd 3f3c 4f72 843d
000002f0: 09b5 d83c 9970 ec3d 965b eb3c 4ae1 53bb
0.08345149 0.13228339 -0.007987111 0.014009137 0.05396672 0.13251492 -0.039536823 0.13458264
0.07704108 -0.06994408 -0.06983291 0.013072868 -0.0802658 0.03717809 0.14891618 -0.031365145
0.01090832 -0.064570375 0.121579655 0.018051924 0.13668138 0.0785799 -0.05212561 0.009217899
-0.01157674 -0.087828845 0.07866067 0.0058867494 0.027105631 0.087217286 0.038193323 0.08885833
0.08085407 -0.042747255 -0.077432804 -0.0889951 -0.0923734 -0.040303793 -0.041155662 -0.11592143
-0.06441211 -0.024127599 0.034388963 -0.02793768 0.022798333 -0.11994859 -0.041364152 0.14426672
0.002465788 -0.066713296 -0.09702225 -0.022295397 0.049489517 0.073658876 0.039988797 0.14344147
0.09110678 0.12413476 0.010918478 0.07026293 -0.039781656 0.06625573 0.09982082 -0.008412979
-0.21308915 -0.008719907 -0.076449595 -0.19831303 -0.20675574 -0.06576086 -0.10541229 -0.07915965
0.009863473 0.07031814 -0.22109689 -0.19859764 0.012802989 0.026301133 -0.08684923 -0.10983423
-0.029403454 -0.032766204 -0.007857904 -0.098981366 -0.09286069 -0.0035329314 -0.045337312 -0.026480576
-0.22990839 -0.09095723 -0.13514695 -0.1386084 -0.1801191 0.02355586 -0.08189717 -0.049444553
-0.07191731 -0.11671452 -0.054425634 -0.15077586 -0.2220988 -0.15115668 -0.00869604 -0.057400625
-0.21285464 -0.043873936 -0.035750285 -0.21835983 -0.08684588 -0.05064552 -0.0505969 -0.22130565
-0.11941687 -0.09553774 -0.06363457 -0.19985138 -0.0975382 -0.03472509 -0.21163598 -0.18409255
-0.16467567 -0.23838368 -0.047778074 -0.1423091 0.0012079525 -0.11655405 0.058478136 -0.18419455
-0.10473528 -0.053370092 0.07086284 -0.023892121 0.010273052 -0.018453902 -0.11560655 -0.096263826
0.015593462 0.092990495 0.012399101 0.07023188 0.006959912 -0.15495661 0.04571814 0.052122675
-0.043727018 -0.0758764 -0.10483475 0.009531387 0.067298196 -0.12585124 -0.061627183 -0.06526961
-0.09948614 0.08936674 -0.056382816 0.11121227 -0.06820063 -0.027073726 -0.0688415 -0.1520488
-0.06755046 0.06984663 0.03067512 -0.018047942 0.07828121 0.019679455 0.109970175 -0.022705287
0.11253551 -0.020150177 -0.013466825 -0.0072312634 -0.033510234 0.06740056 0.051660392 0.10537863
0.14056833 0.031594317 -0.004463373 0.00983602 0.04282954 -0.06560941 -0.1427496 0.08937396
-0.06040391 0.10346796 0.0117066875 0.06467115 0.026453512 0.11544914 0.028730195 -0.0032330328

inference_model.rnn.bias_hh_l1 f4 [192]
00000000: 72b9 81bc 451d 71bd 8af0 583d 26b0 1a3e
00000010: 831f 943d ee59 c3bd ad3a 16bd d027 cc3d
00000020: 7b6d 4e3d d527 b93c 71d2 abbd 04cd 0d3d
00000030: 3960 cf3d 877a b0bd e67e b7bd de9f 5abd
00000040: 3cb8 c8bd af95 a33d e52d e43d 82f0 fc3d
00000050: 46e0 6d3c 384a 2e3c f77c 3e3d 5499 60bc
00000060: 93bc 61bd 7658 f33d 3746 c73b 06bd b2bd
00000070: 28cc d2bd c17c 1a3e 86fa 7d3d 0073 dd3d
00000080: 24cd 143c 3dde 4abd 7985 fc3d b75f 8c3d
00000090: c9f9 833d 0751 9abd 1db4 b9bc 0c98 f4bc
000000a0: 401a d4bc 5c61 b9bd 3be9 003e 8409 753d
000000b0: e742 d63d 60ae e7bd 9962 0b3e 1936 6c3d
000000c0: 6ca1 223d e5a8 153d 7ad0 cbbd ee73 653d
000000d0: df51 a63d e056 08bb 61e0 013e b124 b9bd
000000e0: 1b14 b0bd 68f3 b43c 6a06 04bd 805d 383d
000000f0: e3ab b63d 3c48 f23d 3d4b fdba a0a9 b6bd
00000100: 8751 5cbd b7ef 19be 60cd 28be 7a13 4abe
00000110: 1b79 c4bc c8d9 34be 22f7 efbd b4b2 89bc
00000120: 5df5 68bc 571a 233d 9262 88bc 94cd 863b
00000130: 87ee 31bd c46d 53be 0a14 b7bd 74e4 8bbc
00000140: 8912 6dbe 8287 f7bd 652a 22be a7a4 5abc
00000150: 32d2 1bbe 890e dfbd 14a8 34be c1df 42be
00000160: f469 d9bd b643 68bd 7d05 023d be82 06be
00000170: f0e5 4dbe 6d18 a7bd 5a0b 52be a307 b9bd
00000180: f5f3 903b c02f c4bd da6a 59be 89ce 7dbd
00000190: 29b2 5fbe 15aa cebd fa2e f3bd c99f 0abe
000001a0: fe5b 44be a2e4 63be 222c 60bd 74ef 7bbd
000001b0: 0c1c 45be ddae 17be 0404 423c 95b2 33bb
000001c0: 63bb 0fbe 04a4 44be 196e 4ebd e616 24be
000001d0: f8c3 60bd deee 41bd f98c 1abe 406e 82bd
000001e0: 3342 333d e4c1 80be 6276 2ebe feea 09be
000001f0: 7fe3 463b 8ab0 84bd 7f5c 3bbd 4f80 64be
00000200: f99d c6bd 57d7 39bd 6cfe 243d d297 8f3d
00000210: 0807 573c aa2f a83d 0573 35ba fa0e 833d
00000220: c38a abbd 1471 94bc 5d8d b2bd 0dbd 86bd
00000230: f177 cf3d f858 c1bc 6d91 80bd 927e 02be
00000240: 4e53 77ba 96d4 b2bd d500 0cbe f511 b4bc
00000250: ab97 96bd 1fcb 7dbd 9268 563d 0917 eb3c
00000260: 34d8 fabd 4e2e 503d 5f4f 133e 639a 443d
00000270: f43b 093e adda 14ba fed1 b93d f8e8 5a3d
00000280: f4ff 36bd fb79 463c 1fec d1bd 95e5 df3d
00000290: 451b a23d d965 06be 98be 0a3d 8a26 fcbc
000002a0: 1c94 133e 9f14 98bd 3352 babd 3d94 b13d
000002b0: 0ae6 edbb 7cb5 98bd b574 92bd d5c9 7c3d
000002c0: dbb0 153e a45a 09bd 0745 853d 12a4 fb3d
000002d0: f5ad 333b d83f 1a3e e5f7 c13c 1068 36bd
000002e0: 62be bd3d 3a82 793c ed73 0bbd cea3 c9bd
000002f0: 1a2a 9a3d 28b0 c23d 04d5 cdbc 53fa b43d
-0.015835498 -0.058865804 0.05296377 0.15106258 0.07232573 -0.09538637 -0.03667705 0.09968531
0.050397377 0.022602001 -0.08389748 0.034619346 0.10125775 -0.0861712 -0.08959751 -0.053375117
-0.09800765 0.07987534 0.11141566 0.12350561 0.014518803 0.010637812 0.046505895 -0.013708431
-0.05511148 0.11882107 0.0060813683 -0.087274596 -0.10292846 0.15086652 0.062006496 0.1081295
0.009082112 -0.04952835 0.123301454 0.06854194 0.06444127 -0.07534986 -0.022668893 -0.029857658
-0.025891423 -0.09051773 0.1258897 0.059823528 0.10461979 -0.11312556 0.13611831 0.05766878
0.039704725 0.036538024 -0.09951873 0.056018762 0.081210844 -0.0020803735 0.1268325 -0.090402015
-0.08597585 0.022088721 -0.03223268 0.045011044 0.089195035 0.11830184 -0.0019324791 -0.08919072
-0.053788688 -0.1503285 -0.16484594 -0.19733992 -0.023983529 -0.17661202 -0.11717059 -0.016808845
-0.014218655 0.03982004 -0.016648564 0.0041138623 -0.043440368 -0.20647341 -0.08939369 -0.017076708
-0.23151602 -0.12086393 -0.15836485 -0.01334492 -0.15216902 -0.10891444 -0.17642242 -0.19030668
-0.10615912 -0.0567052 0.031743515 -0.13135812 -0.20107245 -0.08158956 -0.20512143 -0.0903466
0.004423613 -0.0957942 -0.21232167 -0.061964545 -0.21845306 -0.10091034 -0.118741944 -0.13537516
-0.19175717 -0.22255185 -0.05472959 -0.061507657 -0.1924898 -0.14812799 0.011841778 -0.0027419676
-0.14036326 -0.19203192 -0.050397966 -0.1602436 -0.05487439 -0.047346942 -0.1509284 -0.06368685
0.043764304 -0.25147927 -0.17037347 -0.13468549 0.0030348 -0.06478985 -0.045742508 -0.22314571
-0.096981 -0.04537138 0.040281698 0.07011379 0.013124235 0.08212216 -0.00069217413 0.06399341
-0.08376076 -0.018120326 -0.08718369 -0.06579027 0.10130299 -0.023601994 -0.06277738 -0.12743595
-0.00094347156 -0.08731954 -0.13672192 -0.021981219 -0.07353147 -0.06196129 0.05234582 0.028697507
-0.12248269 0.05082541 0.14385746 0.047998797 0.13401777 -0.0005678337 0.09073256 0.053444833
-0.04467769 0.012114043 -0.10250115 0.10932461 0.079153575 -0.1312479 0.03387317 -0.030780096
0.14411968 -0.07425808 -0.090977095 0.08670852 -0.007260089 -0.074564904 -0.07151166 0.06171592
0.14618246 -0.033533707 0.065073065 0.12287153 0.002741692 0.15063417 0.023677776 -0.044532835
0.09264828 0.015228802 -0.034046102 -0.098456964 0.075275615 0.095062554 -0.025125988 0.08836808
