class_0_dkf.pt (torch, 185271 bytes, 24 tensors)

inference_model.rnn.weight_ih_l0 f4 [192, 3]
0	0xbde4948d	-0.11161146
1	0xbdd7e0e8	-0.10540944
2	0x3d2839c4	0.041070715
3	0x3c5a005c	0.01330575
4	0xbd866575	-0.0656232
5	0xbd9b7b5d	-0.07591889
6	0x3cb8ad21	0.022543492
7	0xbd97abfc	-0.0740585
8	0x3d9c5e7a	0.076352075
9	0xbe0119a7	-0.12607442
10	0xbc8569fd	-0.01628589
11	0xbcb9641d	-0.022630746
12	0x3da42d5d	0.08016465
13	0xbb9a8471	-0.0047154953
14	0xbd468d9f	-0.048474904
15	0xbdb58310	-0.08862889
16	0xbc60e624	-0.013726745
17	0xbdce0295	-0.10059086
18	0xbd768f05	-0.060194988
19	0xbad035b3	-0.0015885144
20	0xbd2e8f89	-0.042617355
21	0x3c5b4f1c	0.01338556
22	0xbda128d9	-0.07869119
23	0x3cbf9b80	0.023389578
24	0xbdd2b537	-0.1028847
25	0xbd945352	-0.072424546
26	0xbd064fff	-0.032791134
27	0xbc318ed3	-0.010837275
28	0x3d8741f2	0.06604375
29	0x3df85ad2	0.121266976
30	0x3d179316	0.037005506
31	0xbe0c5f8d	-0.13708325
32	0xbdbe2fff	-0.09286498
33	0x3cf72f8c	0.03017404
34	0x3cfb2ef5	0.03066204
35	0x3dcbb233	0.09946098
36	0x3d562bce	0.05228787
37	0x3c321f5f	0.010871737
38	0xbc9bb121	-0.01900536
39	0xbca9d6c9	-0.0207323
40	0x39315107	0.0001691022
41	0xbd1dbc5a	-0.038509704
42	0xbd83d225	-0.06436566
43	0x3d81b041	0.06332446
44	0x3dabc4bb	0.08387133
45	0x3cb43778	0.021999106
46	0xbd9a0e6d	-0.07522283
47	0x3c832462	0.01600856
48	0x3b354eb9	0.002766533
49	0xbdf30bfd	-0.11867521
50	0xbd423197	-0.047410574
51	0xbc25410c	-0.010086309
52	0xbdc3b37c	-0.09555718
53	0x3df92ae8	0.12166387
54	0x3d66f068	0.056381613
55	0xbd7035de	-0.05864512
56	0xbd987526	-0.07444219
57	0x3c93f59a	0.018061448
58	0x3da69ef7	0.08135789
59	0xbda09ffe	-0.07843016
60	0x3d3619a5	0.04445805
61	0xbb1b298f	-0.0023675894
62	0xbc2e1c66	-0.010626888
63	0xbdd37d9b	-0.10326692
64	0x3dfb5b14	0.12273231
65	0xbc66a201	-0.014076711
66	0xbd9fe2b2	-0.078069106
67	0x3dab4615	0.083629765
68	0xbd2dd463	-0.042438876
69	0xbcc5c432	-0.024141405
70	0x3dfd95f4	0.12382117
71	0x3bc04fd3	0.005868891
72	0xbd92ec7d	-0.07174013
73	0xbdad59f9	-0.084644265
74	0xbd425325	-0.047442574
75	0x3de8bdfa	0.1136436
76	0xbda8da6f	-0.08244788
77	0xbc67087a	-0.014101142
78	0xbd989ea3	-0.074521326
79	0x3d963714	0.07334724
80	0xbdf590d2	-0.11990513
81	0xbdbab773	-0.091170214
82	0x3d99b249	0.07504708
83	0xbd1ce416	-0.038303457
84	0x3d2a7d74	0.041623548
85	0xbdafb613	-0.0857965
86	0x3db42401	0.0879593
87	0xbd3e5f03	-0.04647733
88	0x3d4bf4be	0.04979395
89	0xbdbebf86	-0.09313874
90	0x3d976b3b	0.073934995
91	0x3df69e5f	0.12041926
92	0x3d9fbc46	0.07799582
93	0xbdf21bf7	-0.1182174
94	0xbda6ec09	-0.08150489
95	0x3b7a54e1	0.0038197564
96	0xbdc4d9f2	-0.09611882
97	0xbda4c9f4	-0.08046332
98	0x3dcaa51a	0.09894772
99	0xbd7cc280	-0.061708927
100	0xbe0fe06b	-0.14050452
101	0x3d3e497b	0.046456795
102	0xbdbe6d50	-0.092981935
103	0xbdaed097	-0.08535879
104	0x3c863f13	0.016387498
105	0x3d1f9e75	0.038969476
106	0xbd790ade	-0.06080138
107	0x3ce7a17b	0.028275242
108	0xbc22bb97	-0.00993242
109	0xbd698fdd	-0.057021964
110	0xbde35f5b	-0.11102172
111	0x3e034646	0.12819776
112	0x3d759115	0.059952814
113	0xbdae3ff2	-0.0850829
114	0x3d59505e	0.05305516
115	0xbdc0ba5f	-0.094105475
116	0x3c906b60	0.017629325
117	0x3d8d2c8d	0.06893263
118	0x3dda3f4b	0.106566034
119	0xbd3816f3	-0.04494376
120	0x3bae5319	0.0053199646
121	0x3c967f75	0.018371323
122	0x3dc3f3b5	0.09567968
123	0xbd6f324e	-0.058397584
124	0xbdada104	-0.08477977
125	0x3e0c915e	0.13727328
126	0x3da1d6a0	0.079022646
127	0x3db850ea	0.08999808
128	0x3d2f9586	0.042867206
129	0x3cccabc3	0.024984246
130	0xbd8c99bb	-0.06865259
131	0xbda6c9c2	-0.08143951
132	0x3e09415c	0.13403839
133	0x3d53e75c	0.051734313
134	0x3dd32d4a	0.103113726
135	0xbde8817a	-0.11352821
136	0xbd321946	-0.043481134
137	0xbdf35318	-0.11881083
138	0xbdc435b8	-0.095805585
139	0x3de59f6a	0.112120464
140	0xbda156ef	-0.078779094
141	0xbdbea2cc	-0.09308395
142	0xbdb711d2	-0.08938946
143	0xbdb58df5	-0.08864967
144	0x3d29a5ca	0.041417874
145	0x3e029017	0.12750278
146	0x3e03f518	0.12886465
147	0x3d5db664	0.05412902
148	0x3d6c96d3	0.057761025
149	0xbdcd9a9b	-0.10039254
150	0xbd8738c5	-0.06602625
151	0xbdf9f8e3	-0.122056745
152	0xbdfac0fb	-0.12243839
153	0xbe01213d	-0.12610336
154	0xbdc6791f	-0.09691071
155	0xbdcbdaaa	-0.09953816
156	0x3d4e2acd	0.050333787
157	0xbdb2ddef	-0.08733737
158	0xbcc78090	-0.024353296
159	0xbd32bbaf	-0.04363602
160	0x3a2875e6	0.00064262596
161	0xbc6ff990	-0.014646903
162	0xbcb2aaaf	-0.021809904
163	0x3d467282	0.048449047
164	0xbdfdf713	-0.12400641
165	0x3c622e8c	0.013805043
166	0x3c367847	0.011137075
167	0x3ce4c0a3	0.027923888
168	0xbd2f0d19	-0.0427371
169	0x3ba8672e	0.005139253
170	0xbdc59073	-0.09646692
171	0x3c5a6464	0.013329599
172	0xbdb967a1	-0.09052969
173	0xbdc143aa	-0.09436734
174	0xbc85b763	-0.016322797
175	0x3dbafcc6	0.09130244
176	0xb9b10369	-0.00033762612
177	0x3ce50651	0.027957113
178	0xbd1723e4	-0.036899462
179	0xbdf56a44	-0.11983159
180	0xbd0840ca	-0.033264913
181	0x3d29ec70	0.04148525
182	0xbdd90e0b	-0.105983816
183	0x3dcb331c	0.09921858
184	0xbdc60770	-0.09669387
185	0x3d24378f	0.040092047
186	0xbd11a109	-0.035553966
187	0x3d503626	0.05083289
188	0xbdf3dd62	-0.1190746
189	0xbc75d98f	-0.015005483
190	0xbc5a3114	-0.013317365
191	0x3d98ecb8	0.074670255
192	0x3d77b9d0	0.06047994
193	0x3dfc8618	0.12330264
194	0xbdbaaaf1	-0.09114636
195	0xbc4d31ac	-0.01252405
196	0x3d255e44	0.0403731
197	0x3d157bff	0.036495205
198	0xbd974ed5	-0.07388083
199	0x3dd146c3	0.10218575
200	0x3e023262	0.12714532
201	0xbc08161f	-0.008306055
202	0x3d184f7a	0.03718517
203	0x3c626784	0.013818625
204	0xbbbfb89e	-0.0058508655
205	0xbb2e28b6	-0.0026574559
206	0x3bfb413f	0.00766769
207	0x3d94b4b7	0.07261031
208	0xbbfdc1c4	-0.007744046
209	0x3dafd2fc	0.08585164
210	0x3ca650b5	0.020302156
211	0x3d7b0809	0.06128696
212	0x3d665185	0.056230087
213	0xbdcc41eb	-0.0997351
214	0x3dfba0b8	0.12286514
215	0x3d2ac4e9	0.041691694
216	0x3d97c5bf	0.07410764
217	0x3dab0b41	0.08351756
218	0x3d88f895	0.06688038
219	0x3dc6eb7c	0.09712884
220	0x3c41eb7d	0.01183593
221	0x3d9152dc	0.07095882
222	0xbdb0ebdf	-0.08638739
223	0xbd854392	-0.06507029
224	0x3db09de2	0.08623864
225	0xbd90707f	-0.07052707
226	0xbde7ba47	-0.113148265
227	0x3daa3235	0.083103575
228	0x3d0b03fc	0.033939347
229	0xbc149aed	-0.00907014
230	0xbde87d97	-0.11352079
231	0xbdbaab7b	-0.091147386
232	0xbd095f5e	-0.033538215
233	0x3d165590	0.036702693
234	0xbd09ce87	-0.033644225
235	0xbcf23db3	-0.029570436
236	0xbdd3e877	-0.103470735
237	0x3cd393c0	0.025827289
238	0xbd1b0721	-0.037848596
239	0x3d825b41	0.063650616
240	0x3dc33a28	0.09532577
241	0xbdd26dae	-0.10274826
242	0x3c846f20	0.01616627
243	0xbdc0fb7a	-0.09422965
244	0xbcef62b1	-0.029221864
245	0xbd8c5d57	-0.06853741
246	0xbd45b716	-0.048270307
247	0xbc99f68c	-0.01879432
248	0xbcabf8c9	-0.020992653
249	0x3da3a04b	0.07989558
250	0x3e019395	0.12653954
251	0xbde72c7a	-0.1128778
252	0x3d68f7b1	0.056876842
253	0x3c031bf0	0.008002266
254	0xbdf18a1e	-0.11793922
255	0xbcdde457	-0.02708642

inference_model.rnn.weight_hh_l0 f4 [192, 64]
0	0xbe01f3bb	-0.12690632
1	0xbd23bfa7	-0.039977696
2	0xbdabdefc	-0.0839214
3	0x3cea88e7	0.028629733
4	0xbd52269d	-0.051306356
5	0xbdcf5172	-0.10122956
6	0x3d6fd8ef	0.058556493
7	0xbe0383f2	-0.12843302
8	0x3e094436	0.13404927
9	0x3e057bf4	0.13035566
10	0xbcd70b6f	-0.02625057
11	0xbdac312e	-0.08407818
12	0xbe0deade	-0.13859126
13	0x3ccfb0dc	0.025352888
14	0xbb8f2240	-0.0043680966
15	0xbd92763c	-0.07151458
16	0xbb4e571a	-0.0031485022
17	0x3dfc81b9	0.1232943
18	0xbda55381	-0.08072568
19	0xbbe31f7d	-0.006931244
20	0xbd06d6ce	-0.032919697
21	0x3d9b8d74	0.075953394
22	0x3da69b36	0.08135073
23	0xbdd16253	-0.10223832
24	0xbdd4cd52	-0.10390724
25	0x3d7452bb	0.05964921
26	0xbd8718c5	-0.06596521
27	0xbd0a4336	-0.033755504
28	0xbd9b7f91	-0.07592691
29	0xb8e83b6d	-0.00011073691
30	0x3d967d18	0.073480785
31	0x3d8f8bbf	0.07009076
32	0x3b649760	0.0034880266
33	0x3df30e06	0.11867909
34	0xbd0693e3	-0.03285588
35	0xbce2523d	-0.027627105
36	0x3c9ea28b	0.019364616
37	0xbdcd5f9a	-0.10028
38	0x3ca5ed60	0.02025479
39	0xbd90dcbd	-0.070733525
40	0xb97cd4cd	-0.00024111867
41	0xbd934acb	-0.07192
42	0xbd8dfc4b	-0.06932887
43	0xbdd39d58	-0.10332745
44	0x3dc6b760	0.09702945
45	0x3dde36eb	0.108503185
46	0x3db72afe	0.08943747
47	0xbd35f612	-0.044424124
48	0x3d46c458	0.04852709
49	0x3dbda172	0.09259309
50	0xbde2da10	-0.11076748
51	0xbdd3a5d1	-0.10334361
52	0xbddc86d5	-0.10767905
53	0x3dee17b9	0.116256185
54	0xbd857045	-0.06515554
55	0x3df8de25	0.12151746
56	0x3da3add8	0.079921424
57	0x3c87a618	0.016558692
58	0x3db3ae86	0.08773522
59	0xbdebfe86	-0.11523156
60	0xbd47303d	-0.048629988
61	0xbdb0cda5	-0.086329736
62	0xbd73b03b	-0.05949424
63	0x3d4cab82	0.04996825
64	0xbb89f76a	-0.0042104023
65	0xbcb18a16	-0.02167229
66	0xbddc0609	-0.107433386
67	0x3dacadef	0.08431613
68	0xbde7672e	-0.11298977
69	0xbddc28ff	-0.10750007
70	0xbd91bb3d	-0.07115791
71	0xbd02639e	-0.031833284
72	0xbdb0b5b3	-0.086284064
73	0x3da2a88e	0.079423055
74	0xbc18b565	-0.009320592
75	0x3d293be1	0.04131687
76	0x3da25378	0.07926077
77	0xbd07d74c	-0.033164307
78	0xbd470d24	-0.048596516
79	0xbe006061	-0.12536766
80	0x3dd4b1ea	0.10385497
81	0xbd999a8a	-0.07500179
82	0x3d9082fd	0.07056234
83	0x3d4e35c6	0.05034425
84	0x3dc75853	0.097336434
85	0xbcf1fd1a	-0.029539634
86	0x3d5da9ee	0.054117136
87	0x3d8e73b4	0.06955662
88	0xbdc5ce75	-0.09658519
89	0x3cc9b8b2	0.024624202
90	0x3d2a83b8	0.041629523
91	0xbd21080f	-0.039314326
92	0x3dbf9172	0.09353913
93	0xbd43abd3	-0.047771286
94	0xbdc55e68	-0.09637147
95	0x3c0d219a	0.008613968
96	0xbe06ce04	-0.13164526
97	0x3dcddf71	0.10052384
98	0x3d131ebd	0.035917986
99	0x3d9d6e32	0.07687034
100	0x3de8989f	0.11357235
101	0x3dadb0f8	0.0848102
102	0xbdadfddb	-0.08495685
103	0x3c538925	0.012911116
104	0xbb039191	-0.0020075778
105	0xbd5804a4	-0.0527388
106	0x3db61bc1	0.088920124
107	0x3e037711	0.12838389
108	0x3d5c434a	0.05377511
109	0xbdc3da11	-0.09563077
110	0x3d0cfdfa	0.0344219
111	0xbcade629	-0.021227913
112	0xbd466bc5	-0.04844262
113	0x3db9ff2d	0.09081874
114	0xbd5e4485	-0.054264564
115	0xbdb02bd5	-0.0860211
116	0x3dcb839f	0.09937214
117	0xbda23b62	-0.079214826
118	0xbd444b7c	-0.04792355
119	0x3d5075cc	0.05089359
120	0x3da147c5	0.07875017
121	0xbcf718aa	-0.030163128
122	0x39b43309	0.000343703
123	0xbd3abae5	-0.045588393
124	0x3d12ca72	0.0358376
125	0xbb19d43e	-0.0023472453
126	0x3c22ce57	0.009936891
127	0xbda257d2	-0.07926907
128	0x3d47d135	0.0487835
129	0xb98694af	-0.0002566925
130	0x3d83470b	0.06410035
131	0xbc1d2169	-0.009590485
132	0x3dd65538	0.10465473
133	0xbd072503	-0.03299428
134	0xbd90072c	-0.07032618
135	0x3ddebad0	0.108754754
136	0xbac0729a	-0.0014682591
137	0x3dc61e46	0.09673743
138	0xbd8b7003	-0.06808474
139	0x3de634ef	0.11240565
140	0xbd948d08	-0.07253462
141	0xbd4a0e05	-0.049329776
142	0xbdc3a8dc	-0.09553692
143	0xbd6bce47	-0.05756977
144	0x3da49fc0	0.080382824
145	0xbd19ec29	-0.037578736
146	0x3c91afaf	0.017783968
147	0xbd06dfe9	-0.03292838
148	0xbdfc5048	-0.1232
149	0xbe04a4cc	-0.1295349
150	0xbd90d812	-0.07072462
151	0xbdaaa20e	-0.08331691
152	0x3de7c9b8	0.11317772
153	0x3db465e4	0.088084966
154	0xbd797423	-0.060901772
155	0x3c9d7ff8	0.01922606
156	0x3c9b14f7	0.018930895
157	0xbc946a03	-0.018116957
158	0x3d101260	0.035173774
159	0x3d6ed68f	0.058310088
160	0xbd0e903c	-0.03480552
161	0xbd6dbd64	-0.058041945
162	0x3da34f85	0.079741515
163	0x3e02e4f5	0.12782653
164	0x3cfb90ae	0.030708637
165	0xbdf5b621	-0.11997629
166	0xbdcf686a	-0.10127337
167	0xbd3132d0	-0.04326135
168	0x3cffb9e1	0.031216564
169	0x3db57f6d	0.08862195
170	0xbd4d3f63	-0.05010928
171	0xbdec6c62	-0.1154411
172	0x3d93fe72	0.07226266
173	0xbdcb2993	-0.09920039
174	0xbdf01419	-0.11722583
175	0xbd01072b	-0.031500977
176	0xbc9c9e95	-0.019118587
177	0xbd7e4413	-0.06207664
178	0x3df7bd73	0.120966814
179	0xbd83bc55	-0.06432406
180	0xbcedab5e	-0.029012378
181	0x3c52aeff	0.012859105
182	0x3ca201c8	0.01977624
183	0xbd8af4b7	-0.06784957
184	0x3d9294d7	0.07157295
185	0x3de552f2	0.11197461
186	0x3d8e8a76	0.06960003
187	0x3d731998	0.05935058
188	0x3aa2ab22	0.0012410621
189	0x3dabb11a	0.08383389
190	0x3c9ffcec	0.019529782
191	0x3c80420b	0.015656492
192	0x3df3489d	0.11879084
193	0x3dc133d3	0.09433713
194	0xbcb354c2	-0.021891002
195	0xbdd9a8c5	-0.10627893
196	0xbc9c90c7	-0.019112004
197	0x3cf792a7	0.030221296
198	0x3d950ab4	0.07277432
199	0x3d145f94	0.036223963
200	0x3d895a0b	0.067066275
201	0x3d315dec	0.04330246
202	0xbda3ea1c	-0.08003637
203	0xbddb116b	-0.106966816
204	0x3db73494	0.08945575
205	0x3bf1cddf	0.007379278
206	0xbc0c12a5	-0.008549367
207	0xbd40c076	-0.047058545
208	0x3dadebea	0.08492263
209	0x3bd82903	0.006596686
210	0x3d2905d2	0.041265316
211	0x3cdb9bd3	0.026807701
212	0x3c8ebacc	0.017423056
213	0x3da0f81d	0.07859824
214	0x3cdf38dd	0.027248794
215	0xbe06c43f	-0.131608
216	0x3cac98eb	0.02106901
217	0x3d8b2027	0.06793242
218	0x3d60c6b4	0.054876998
219	0x3d947e3e	0.07250641
220	0xbd0ee9b6	-0.034890853
221	0xbb7b758a	-0.003836962
222	0xbda6cdb3	-0.08144703
223	0xbdfb5723	-0.122724794
224	0xbdb0e22b	-0.08636888
225	0xbdc5873f	-0.09644937
226	0xbd598ec4	-0.053114668
227	0xbd4dc413	-0.05023582
228	0x3d548f70	0.051894605
229	0xbd793efe	-0.06085109
230	0xbd91b931	-0.071154006
231	0x3d5ef26c	0.05443041
232	0xbe09b0b3	-0.13446312
233	0x3e031384	0.12800413
234	0xbd7dfacd	-0.06200676
235	0xbd87ef5e	-0.066374525
236	0x3df29ff6	0.118469164
237	0x38af4c9d	8.3589206e-05
238	0xbd58f913	-0.05297191
239	0xbba207ac	-0.004944762
240	0x3dcb373c	0.099226445
241	0xbdf30572	-0.11866273
242	0xbdc571f3	-0.09640875
243	0x3de000a5	0.10937623
244	0x3d83c8c6	0.06434779
245	0x3d0e3d69	0.034726534
246	0xbdf5e043	-0.12005665
247	0x3da26b85	0.07930664
248	0x3dcec149	0.1009546
249	0x3de725d1	0.1128651
250	0x3d673781	0.056449417
251	0xbda21526	-0.0791419
252	0xbd8cb096	-0.068696186
253	0xbcf458cc	-0.029827498
254	0x3dc79063	0.097443365
255	0xbdc50621	-0.096203096

inference_model.rnn.bias_ih_l0 f4 [192]
0	0x3d2bc27b	0.041933518
1	0xbd92a04b	-0.0715948
2	0x3d2e32c9	0.0425289
3	0x3dda1cda	0.10650034
4	0x3dfb9b31	0.1228546
5	0x3dac6adf	0.084188215
6	0x3dd2013e	0.10254143
7	0xbb10ca0b	-0.0022093083
8	0x3d71d561	0.059041385
9	0x3d7deb19	0.061991785
10	0xbd730027	-0.059326317
11	0x3cc6a97f	0.024250744
12	0xbd4ed34b	-0.050494473
13	0x3d7731de	0.06035029
14	0xbd808233	-0.062748335
15	0x3d8986ef	0.0671519
16	0xbab2a2d1	-0.0013628845
17	0x3dea4bfa	0.11440273
18	0xbb68f38c	-0.0035545556
19	0xbd575acd	-0.05257683
20	0x3d092935	0.033486564
21	0x3d13e970	0.036111295
22	0xbd37061c	-0.04468356
23	0xbdd14a78	-0.10219282
24	0x3dbb997a	0.09160133
25	0x3da9459b	0.08265229
26	0x3db4b79f	0.088240854
27	0x3df5a969	0.11995203
28	0x3c6b0ad3	0.014345842
29	0x3de5e5d0	0.11225474
30	0x3decd853	0.11564698
31	0xbcf52086	-0.029922735
32	0x3dbd51ff	0.09244155
33	0x3c92b696	0.01790933
34	0xbd1af047	-0.037826803
35	0xbddd259a	-0.107981876
36	0x3dc6df0a	0.0971051
37	0x3df5c40b	0.12000283
38	0xbd8d64bd	-0.0690398
39	0x3df853b4	0.1212534
40	0xbd415390	-0.047198832
41	0x3c9321f3	0.017960524
42	0x3d01cbf9	0.031688664
43	0x3db613d7	0.08890503
44	0x3d9f7510	0.07786
45	0x3d2ade9c	0.041716203
46	0xbe0c2f33	-0.1368988
47	0xbd94e311	-0.07269872
48	0x3dddba4d	0.1082655
49	0x3df82dc8	0.12118107
50	0xbdcdb07e	-0.10043429
51	0x3d99589d	0.07487605
52	0xbdbb8443	-0.09156086
53	0x3ba012b8	0.004885044
54	0xbdccaf93	-0.099944256
55	0x3deb57ec	0.11491379
56	0xbd87655e	-0.06611131
57	0xbdec29a7	-0.11531382
58	0x3db7faeb	0.08983406
59	0xbda94fc0	-0.08267164
60	0x3d811510	0.063028455
61	0x3d2d0259	0.042238567
62	0xbda5ffbf	-0.0810542
63	0x3dd06f4d	0.10177479
64	0xbb66ffef	-0.0035247763
65	0xbd0f6032	-0.03500385
66	0xbd6575ea	-0.056020655
67	0xbdc8fe5b	-0.098141395
68	0x3d71560a	0.058919944
69	0x3d990ef0	0.07473552
70	0xbdd120c3	-0.10211327
71	0x3dbca425	0.092109956
72	0x3d647216	0.055772863
73	0xbdb5fefe	-0.088865265
74	0x3d200927	0.03907123
75	0xbd6a01f1	-0.057130758
76	0x3d24c780	0.04022932
77	0x3db4b742	0.08824016
78	0xbb9ea2d5	-0.0048411884
79	0xbd754acc	-0.059885785
80	0xbdf6f3d6	-0.12058227
81	0x3db7578e	0.089522466
82	0x3d1c834d	0.038211156
83	0x3d81cded	0.06338105
84	0x3bda484f	0.006661452
85	0xbde07f71	-0.109618075
86	0x3d527d29	0.051388893
87	0xbcae4327	-0.021272255
88	0x3d973996	0.073840305
89	0x3d390b62	0.04517687
90	0x3d710cf2	0.058850236
91	0xbda64ae4	-0.08119753
92	0x3bbb1ce3	0.0057102307
93	0xbdb4601c	-0.08807394
94	0x3d92cd49	0.07168061
95	0xbde816f2	-0.113325015
96	0xbe01f77e	-0.12692067
97	0x3ddca69c	0.10773966
98	0x3ca4b271	0.020104619
99	0xbd69ccc3	-0.05708004
100	0x3dc81d8c	0.097712606
101	0x3da52189	0.08063037
102	0xbdce8a41	-0.100849636
103	0x3d3ae79c	0.045631036
104	0xbb78852d	-0.0037921176
105	0x3c5d61bd	0.013512072
106	0xbdd4e9b6	-0.10396139
107	0xbdf72191	-0.12066949
108	0x3d95887b	0.07301422
109	0x3da3d49c	0.079995364
110	0x3d9a2700	0.0752697
111	0xbcdc4319	-0.026887463
112	0x3c263e82	0.010146739
113	0x3dfb44a2	0.1226895
114	0x3dff6a17	0.12471407
115	0xbdd5c053	-0.104370736
116	0xbd8c00a7	-0.06836062
117	0x3dacdfa6	0.08441095
118	0xbdeef8e8	-0.11668569
119	0x3db87f56	0.090086624
120	0xbd7b548b	-0.061359923
121	0x3d5de032	0.054168887
122	0x3d9d63bf	0.07685041
123	0xbcf97c69	-0.030454831
124	0x3dc295c4	0.09501222
125	0x3d269444	0.04066874
126	0xbdde0e1e	-0.108425364
127	0x3d254aaf	0.040354427
128	0xbd9fceae	-0.07803093
129	0xbe04e44f	-0.12977718
130	0xbdd2290a	-0.10261734
131	0x3dcc50e5	0.09976367
132	0x3dc3a8f3	0.09553709
133	0x3da09913	0.078416966
134	0xbdbad121	-0.091219194
135	0xbe0e5400	-0.13899231
136	0x3e096d0c	0.13420504
137	0x3d925992	0.071459904
138	0xbc1154f5	-0.008870353
139	0xbdc7abe9	-0.09749586
140	0x3b48f03d	0.0030660771
141	0xbd8f604a	-0.070007876
142	0x3e0ff10f	0.140568
143	0xbd872de5	-0.066005506
144	0x3c206b8a	0.009791264
145	0x3ccc93e3	0.024972862
146	0xbc110d41	-0.008853258
147	0xbd748ad5	-0.059702713
148	0xbd2fe2e7	-0.042941
149	0x3ddb29b9	0.10701317
150	0xbab165eb	-0.0013534402
151	0x3dfb2b73	0.12264147
152	0x3cb48aa5	0.022038767
153	0x3d80b53c	0.06284568
154	0x3dc7c9fe	0.09755324
155	0x3b076b0f	0.0020663177
156	0x3d5cfaf0	0.05395025
157	0xbdc42695	-0.095776714
158	0xbcd432a5	-0.025903055
159	0xbc6b8bfe	-0.014376638
160	0x3d8e31cc	0.06943092
161	0x3de77874	0.113022715
162	0x3cd0a244	0.025468
163	0x3c36b917	0.011152527
164	0xbd64063f	-0.05567002
165	0x3dcd2406	0.100166366
166	0xbcb6eac2	-0.022328738
167	0x3ce14977	0.027500851
168	0x3d84a8df	0.06477522
169	0x3d9e6272	0.07733621
170	0xbd47779c	-0.048698053
171	0x3de457c5	0.11149553
172	0x3dbf0f17	0.0932905
173	0x3dbba0fd	0.091615655
174	0xbc682ef7	-0.014171354
175	0x3d923617	0.07139223
176	0x3cca71c3	0.024712449
177	0x3dda8e59	0.10671682
178	0x3d3a198f	0.04543453
179	0x3c801955	0.01563708
180	0x3ccfab0b	0.025350114
181	0x3d50da47	0.050989415
182	0x3944cdbc	0.00018768659
183	0x3d77ed15	0.060528833
184	0xbd8fc902	-0.07020761
185	0x3dfd9d24	0.12383488
186	0xbd3e98cc	-0.046532437
187	0xbc6812f4	-0.014164675
188	0xbcd4ed8a	-0.025992174
189	0xbdf12387	-0.117743544
190	0xbd8ac9fe	-0.06776808
191	0x3c63ae6e	0.013896568

inference_model.rnn.bias_hh_l0 f4 [192]
0	0x3db17a18	0.08665866
1	0xbdefe8e5	-0.11714343
2	0x3cf9fa92	0.030514989
3	0x3da7b104	0.0818806
4	0x3cbbe3e6	0.022935819
5	0xbdae1111	-0.08499349
6	0xbd45c38f	-0.048282202
7	0x3d89d55b	0.067301475
8	0xbda836e8	-0.082135975
9	0xbda79145	-0.08182005
10	0xbb1cfd8d	-0.002395484
11	0xbc4491f3	-0.011997688
12	0x3d2f24ed	0.042759825
13	0xbdf78108	-0.12085158
14	0xbdd082e0	-0.101812124
15	0x3cd4097c	0.025883429
16	0xbdd1b2d6	-0.102391884
17	0xbcbc9a16	-0.023022693
18	0xbd5653a7	-0.05232587
19	0x3cb70af3	0.022344088
20	0x3db4ea21	0.08833719
21	0xbdc4edae	-0.09615646
22	0xbdb436f1	-0.08799542
23	0x3d222290	0.039583743
24	0xbdbba952	-0.09163155
25	0xbbebfda6	-0.007201868
26	0xbd8d506d	-0.069001056
27	0xbd2f0d13	-0.042737078
28	0xbd0da866	-0.034584425
29	0x3b414ac8	0.0029494036
30	0xbdb1acd9	-0.08675546
31	0xbd336e05	-0.043806095
32	0x3c893f45	0.016753802
33	0x3de86e87	0.113492064
34	0x3d6ab591	0.05730206
35	0xbde12c44	-0.10994771
36	0x3dd6d4a6	0.10489778
37	0x3d3ee9d7	0.046609726
38	0x3dd37de1	0.10326744
39	0x3d0be401	0.03415299
40	0x3dcff4d4	0.10154119
41	0xbdb533ed	-0.08847795
42	0x3d48b6f9	0.04900262
43	0x3d807e95	0.062741436
44	0x3d80dfa4	0.06292656
45	0xbdb71e21	-0.089412935
46	0xbd92fbf8	-0.071769655
47	0xbc35cb17	-0.011095784
48	0xbb44e997	-0.0030046457
49	0x3d89f909	0.06736953
50	0xbcd72581	-0.026263
51	0x3d5630d6	0.052292667
52	0x3d738285	0.059450645
53	0xbd12d4be	-0.035847418
54	0x3db3dd8d	0.08782492
55	0x3db3cca6	0.08779268
56	0xbd08fa45	-0.0334418
57	0x3dd317bd	0.10307262
58	0x3dc92bc3	0.098228
59	0xbb840f05	-0.004030111
60	0x3de08610	0.109630704
61	0x3d4074e9	0.046986494
62	0x3bf58aa3	0.0074933334
63	0xbc2f170c	-0.010686647
64	0x3d8428ce	0.064530954
65	0x3d1fcc46	0.03901317
66	0x3c48464d	0.012223792
67	0xbdbab9c9	-0.09117467
68	0xbcd1da3c	-0.025616758
69	0xbd8ecf78	-0.06973165
70	0x3d65a07d	0.056061257
71	0xbdb248eb	-0.08705314
72	0xbd1f901a	-0.038955785
73	0x3d2fcb29	0.042918358
74	0xbcaae86f	-0.020862786
75	0x3d57630f	0.052584704
76	0x3d99e7bf	0.07514905
77	0xbd66bc3a	-0.05633185
78	0xbbe66fb0	-0.007032357
79	0x3db485f7	0.08814614
80	0xbd8f70b0	-0.07003915
81	0x3dce5fb4	0.10076848
82	0xbc77dc1d	-0.015128163
83	0x3ce410b3	0.027839994
84	0xbd9ee965	-0.0775936
85	0x3ca172d9	0.019708084
86	0x3dbed35f	0.093176596
87	0x3d318f66	0.043349646
88	0xbd29059e	-0.041265123
89	0x3d0a5556	0.03377279
90	0x3dd9baeb	0.10631355
91	0xbceec0d4	-0.029144682
92	0x3dbbaa45	0.09163336
93	0x3cf9a577	0.030474408
94	0xbdbe6765	-0.09297065
95	0x3df186e4	0.117933065
96	0xbcb62922	-0.02223641
97	0xbda459fe	-0.08024977
98	0xbdd21ba1	-0.10259176
99	0xbdfbc911	-0.1229421
100	0xbdfe3dfd	-0.12414167
101	0x3da76253	0.08173051
102	0xbde89599	-0.113566585
103	0x3d4c0f98	0.04981956
104	0xbdb92987	-0.09041124
105	0x3d4b2152	0.049592324
106	0xbcee1e09	-0.029067056
107	0xbd3f0a49	-0.046640668
108	0xbd89e21e	-0.067325816
109	0xbd7f1d43	-0.062283766
110	0x3e03224a	0.12806049
111	0x3d17ef3a	0.03709338
112	0x3d3fad7f	0.04679632
113	0x3dbfc854	0.093643814
114	0xbdc32e0d	-0.09530268
115	0x3d6735b3	0.056447696
116	0x3db55195	0.08853451
117	0x3cfcba42	0.030850533
118	0x3cf00d57	0.029303236
119	0x3cb0fd94	0.02160529
120	0x3d901113	0.07034507
121	0x3de9810d	0.114015676
122	0x3c3af12f	0.011410042
123	0x3e07e0e8	0.13269389
124	0xbd04862c	-0.03235452
125	0x3d324bdc	0.043529376
126	0x3dd7260a	0.10505302
127	0xbbdaf676	-0.0066822125
128	0xbd9219eb	-0.0713385
129	0xbd473b22	-0.048640378
130	0x3d2a71ff	0.04161262
131	0x3d7f02af	0.06225842
132	0xbc69221b	-0.014229323
133	0x3d3f2c48	0.04667309
134	0x3df96343	0.12177136
135	0xbd8d1312	-0.06888403
136	0xbc8f07d1	-0.017459782
137	0xbc8bf799	-0.017085837
138	0x3e076692	0.13222721
139	0xbd652b26	-0.055949353
140	0xbd5c0b28	-0.053721577
141	0x3c2fddb3	0.01073401
142	0xbcc89b90	-0.02448824
143	0x3dc5ea3a	0.09663816
144	0x3e041972	0.12900332
145	0x3dbf71a3	0.09347846
146	0x3c313808	0.010816582
147	0xbd2233b4	-0.03960009
148	0xbdcd2c80	-0.10018253
149	0x3da42b44	0.08016065
150	0x3d9a89bc	0.07545802
151	0x3c409737	0.011754802
152	0xbd033e73	-0.032041978
153	0x3ce613cc	0.028085612
154	0x3dcd218d	0.10016165
155	0xbdc910de	-0.0981767
156	0x3c296fd4	0.010341603
157	0xbc87f90f	-0.016598253
158	0x3d008ecb	0.031386178
159	0xbd219563	-0.039449107
160	0x3c830c18	0.015996978
161	0x3dacb9d2	0.0843388
162	0xbdf4bc61	-0.11949993
163	0xbd671bf7	-0.056423154
164	0xbd06b91e	-0.032891385
165	0x3dc788ca	0.09742887
166	0xbdbfdc14	-0.093681484
167	0x3dca90c0	0.0989089
168	0xbd1af1a2	-0.037828095
169	0xbc997dcc	-0.018736742
170	0xbda90e02	-0.08254625
171	0x3ddd5641	0.10807467
172	0xbc2c4ace	-0.010515882
173	0xbd6d01d3	-0.057863068
174	0x3ddbcaf6	0.10732071
175	0xbc65eaa4	-0.0140329935
176	0x3d3838d9	0.04497609
177	0x3d30bb4f	0.04314738
178	0x3c964e59	0.018347906
179	0x3db06d37	0.08614581
180	0xbd6ef6bf	-0.058340784
181	0xbd3e0666	-0.04639282
182	0x3d44401f	0.047912713
183	0xbdbdcb24	-0.092672616
184	0x3d371d80	0.044705868
185	0xbd88f257	-0.06686848
186	0x3bb0e89f	0.0053988243
187	0xbbe2afa1	-0.0069179093
188	0x3d99ac01	0.0750351
189	0x3dec9456	0.1155173
190	0xbd99828e	-0.074956045
191	0xbdc6307c	-0.096772164

inference_model.rnn.weight_ih_l1 f4 [192, 64]
0	0x3dab1507	0.0835362
1	0x3d8f964a	0.07011087
2	0x3d9c4f11	0.07632268
3	0xbddd7668	-0.108136
4	0x3cda5509	0.026651876
5	0xbc3d1f10	-0.01154305
6	0xbc9e480a	-0.01932146
7	0xbd1d8023	-0.03845228
8	0xbd580fe2	-0.052749522
9	0xbdaa4152	-0.0831324
10	0xbd2d04ac	-0.042240784
11	0x3b0ced0c	0.0021503596
12	0xbcdb63c2	-0.026780967
13	0xbd454b24	-0.048167363
14	0x3dd46d9d	0.103724696
15	0xbc9badb5	-0.019003728
16	0xbb96313c	-0.004583506
17	0xbdccc356	-0.09998195
18	0xbee8808b	-0.4541057
19	0xbd0a3e1b	-0.033750635
20	0x3d9251cd	0.071445085
21	0x3ddcf3c2	0.107886806
22	0xbdef6993	-0.116900586
23	0x3ccc7588	0.024958387
24	0xbda248a5	-0.07924012
25	0xbd660b67	-0.056163218
26	0x3df041fd	0.11731336
27	0x3d8b8bec	0.06813797
28	0x3b8957cc	0.0041913744
29	0xbcbebd63	-0.023283666
30	0x3dad1fe8	0.08453351
31	0x3d6d02e2	0.057864077
32	0x3e00002b	0.12500064
33	0xbdbd9912	-0.092577115
34	0xbd12c646	-0.03583362
35	0xbd404a79	-0.046946023
36	0x3dc5c9b9	0.09657616
37	0x3d343edb	0.044005256
38	0x3c67a9a3	0.014139566
39	0x3c88fd8b	0.016722461
40	0x3c0f4caf	0.00874631
41	0x3c2c3e77	0.01051294
42	0xbd917765	-0.07102851
43	0xbd6417cf	-0.05568677
44	0x3d66dbe2	0.05636204
45	0xbde49892	-0.11161913
46	0xbbe3b0dc	-0.0069485735
47	0x3d59adf3	0.053144407
48	0xbe235260	-0.15949392
49	0x3dd386f4	0.10328475
50	0xbd90840a	-0.070564345
51	0x3e060f91	0.13091876
52	0x3dc4ac2c	0.09603152
53	0x3d0be147	0.034150388
54	0x3d4fdac6	0.050745748
55	0x3defbfd4	0.1170651
56	0x3bbfa9c2	0.005849094
57	0x3e0247d4	0.12722713
58	0x3dfe0515	0.12403313
59	0xbdf440e7	-0.11926442
60	0x3d16b803	0.03679658
61	0x3cb8c9e2	0.022557203
62	0x3de4b5e1	0.11167503
63	0x3dba1a16	0.09087007
64	0xbde71da2	-0.11284949
65	0xbab1b7a3	-0.0013558756
66	0x3dd63145	0.10458616
67	0xbdbee35e	-0.093207106
68	0xbd16778a	-0.036735095
69	0x3d9d482b	0.076797806
70	0x3ce1379d	0.027492339
71	0x3d91c5de	0.07117818
72	0xbd61bae5	-0.055109877
73	0x3c05fe0d	0.008178246
74	0x3c777bf3	0.015105235
75	0xba94b3af	-0.0011345054
76	0xbd2d6749	-0.04233483
77	0x3dd59965	0.10429648
78	0x3cbd5a69	0.0231144
79	0x3d9667c2	0.07344009
80	0xbd47b1ec	-0.048753664
81	0x3cfaf376	0.03063367
82	0xbeca67bc	-0.39532268
83	0xbd841cd0	-0.06450808
84	0xbe1ae448	-0.15126145
85	0x3d8688be	0.0656905
86	0xbc41f05a	-0.011837089
87	0xbdb954ce	-0.09049378
88	0x3d6e451b	0.058171373
89	0x3cde2116	0.027115386
90	0x3de93e3f	0.113888256
91	0x3d10dda7	0.035367634
92	0x3d0f55d5	0.034993965
93	0x3d161c2c	0.03664796
94	0x3dda6087	0.106629424
95	0x3d9567c0	0.07295179
96	0xbd615b0d	-0.055018473
97	0xbde114ed	-0.109903194
98	0x3d8684b2	0.06568278
99	0x3d899186	0.067172095
100	0xbc0fe785	-0.008783226
101	0x3dc6f002	0.097137466
102	0xbcd53631	-0.026026817
103	0xbb1964dc	-0.0023406064
104	0xbda87c7f	-0.08226871
105	0xbd9ae71e	-0.07563613
106	0xbd6873b2	-0.05675096
107	0xbc04ecd3	-0.008113104
108	0xbdb153fb	-0.08658596
109	0x3d962894	0.073319584
110	0xbd852603	-0.06501391
111	0x3da03719	0.07823009
112	0xbe3a3dfa	-0.18187705
113	0x3dbd9feb	0.092590176
114	0x3d8abf9a	0.06774826
115	0x3dd42f7d	0.1036062
116	0xbb6bd3c4	-0.0035984376
117	0xbd924195	-0.07141415
118	0x3ddd07f7	0.10792535
119	0xbd339287	-0.04384091
120	0xbd0d7a24	-0.03454031
121	0x3d876f1c	0.06612989
122	0xbd98f88d	-0.07469282
123	0xbdb2f602	-0.087383285
124	0xbd456d26	-0.048199795
125	0xbd78c937	-0.06073877
126	0x3ca29bfe	0.019849773
127	0xbb85d106	-0.0040837554
128	0xbd96d805	-0.07365421
129	0x3d9fac75	0.077965654
130	0xbdd8a3d4	-0.10578123
131	0xbd9775a7	-0.07395487
132	0xbdb43ac5	-0.08800272
133	0x3dd64c60	0.10463786
134	0x3d0d8a37	0.03455564
135	0x3af0a8ef	0.0018360893
136	0x3d891aa0	0.066945314
137	0x3d98aed6	0.07455222
138	0xbcd25b52	-0.02567831
139	0xbd831723	-0.06400897
140	0xbdadc59b	-0.08484956
141	0x3b86498a	0.004098122
142	0xbd2e9b2b	-0.04262845
143	0x3cf51eb4	0.029921867
144	0xbddf0dbf	-0.10891294
145	0x3d9293d0	0.07157099
146	0xbedfe6e0	-0.4373083
147	0xbe1e9a7a	-0.15488616
148	0xbe1255e9	-0.14290585
149	0xbcd60911	-0.02612737
150	0x3ddb723f	0.1071515
151	0xbd8e58dc	-0.06950542
152	0x3d8dafa3	0.06918266
153	0x3d254450	0.04034835
154	0xbd10ff77	-0.03539988
155	0xbd666f82	-0.056258686
156	0xbd8fb481	-0.0701685
157	0x3d8812b2	0.06644191
158	0xbdd6db38	-0.104910314
159	0xbdcfd019	-0.10147113
160	0x3e051507	0.12996303
161	0xbdf2deb5	-0.11858884
162	0x3ceab5d5	0.028651157
163	0x3c8a98e5	0.016918609
164	0x3d21acbb	0.03947137
165	0xbd644cff	-0.05573749
166	0xbdce2432	-0.100654975
167	0xbddbe9ba	-0.10737939
168	0xbc99f5bf	-0.018793939
169	0xbc8e7f42	-0.017394666
170	0x3d764ed2	0.060133763
171	0x3d275e0c	0.040861174
172	0x3d99055a	0.07471724
173	0xbd9f521b	-0.07779332
174	0xbdf69309	-0.120397635
175	0x3cf9ebb0	0.030507892
176	0xbe6b56dd	-0.22982354
177	0x3da60713	0.08106818
178	0xbce5bee5	-0.028045127
179	0x3cbd0921	0.023075642
180	0x3d5cc56c	0.053899214
181	0xbd90a9e1	-0.07063652
182	0x3dd1e796	0.1024925
183	0xbd9bd99b	-0.07609864
184	0xbce914f8	-0.028452381
185	0xbcfe4780	-0.031039953
186	0x3e19bb19	0.15012778
187	0x3d5da045	0.054107923
188	0x3d909a4c	0.0706068
189	0x3c65c9db	0.014025177
190	0x3d91a196	0.07110898
191	0x3e1cc223	0.15308432
192	0xba0a4f50	-0.0005276101
193	0x3d9de12c	0.07708964
194	0x3da7868d	0.081799604
195	0x3d065cd2	0.032803364
196	0x3d727958	0.059197754
197	0xbdbeeb94	-0.09322277
198	0xbb2fa6b2	-0.002680224
199	0xbdcb1d07	-0.09917646
200	0xbdcac73e	-0.09901284
201	0x3d4feb41	0.050761465
202	0xbdd43e61	-0.1036346
203	0x3d1805e5	0.037114996
204	0xbccb1acb	-0.02479305
205	0xbd11a555	-0.035558064
206	0x3ddb19c0	0.10698271
207	0xba08deda	-0.0005221196
208	0xbe00e39e	-0.12586829
209	0xbd785893	-0.060631346
210	0xbe936b46	-0.2879278
211	0x3dc88102	0.09790231
212	0xbc9a8ba4	-0.018865414
213	0x3db37ed5	0.08764426
214	0x3d853e4c	0.06506023
215	0x3d9a7c5e	0.075432524
216	0x3d163253	0.036669087
217	0x3c99c087	0.018768562
218	0xbdc6cfd5	-0.097076096
219	0x3bcba71a	0.0062149884
220	0xbc8ee824	-0.017444678
221	0xbd4c3250	-0.04985267
222	0xbcdf713d	-0.027275676
223	0xbd7dfea2	-0.062010415
224	0x3da1ecc5	0.07906488
225	0xbe0344c3	-0.128192
226	0xbcdf489d	-0.027256304
227	0x3d23a751	0.039954487
228	0x3e1760b9	0.1478299
229	0x3dc77007	0.097381644
230	0x3d3262c5	0.043551225
231	0xbd4b0775	-0.04956766
232	0x3d15dfaa	0.036590256
233	0x3d08cb60	0.03339708
234	0xbdd51acd	-0.104055025
235	0xbd6f2847	-0.05838802
236	0x3d4a052a	0.04932133
237	0xbe17a2fb	-0.14808266
238	0xbd6c127a	-0.057634808
239	0x3dbce968	0.09224206
240	0xbd1da9fb	-0.038492184
241	0xbda238c1	-0.07920981
242	0x3c7e9c0d	0.015540135
243	0xb9ba172d	-0.00035493952
244	0xbd0e6bf3	-0.034770917
245	0xbcfc3722	-0.030788008
246	0x3cfd2790	0.030902654
247	0x3ddc07e9	0.10743696
248	0x3dcf2779	0.10114951
249	0x3e0b2252	0.13587311
250	0xbd4e009e	-0.050293557
251	0x3d73846d	0.059452463
252	0xbd97fd04	-0.07421306
253	0xbcc25366	-0.023721408
254	0xbd4ca2bc	-0.049959883
255	0xbd9a07a4	-0.075209886

inference_model.rnn.weight_hh_l1 f4 [192, 64]
0	0xbd3d58a6	-0.04622712
1	0x3df5e11b	0.12005826
2	0x3e0a0020	0.1347661
3	0x3daf95f1	0.08573521
4	0xbcb096a7	-0.021556212
5	0x3d81cd9e	0.063380465
6	0x3ddf7779	0.109114595
7	0xbd6a10ea	-0.057145037
8	0x3daf4d76	0.085596964
9	0x3cbe9c13	0.023267781
10	0xbb8997ad	-0.0041989894
11	0xbda0abf4	-0.078452975
12	0x3de9119a	0.1138031
13	0xbdb2d300	-0.08731651
14	0x3ddc465d	0.10755608
15	0x3ddd9eef	0.1082133
16	0x3d834a7d	0.06410692
17	0x3c6d717c	0.014492389
18	0x3e0b8ca6	0.13627872
19	0xbdad20bd	-0.0845351
20	0xbdbe6a6c	-0.09297642
21	0x3cfdfeb0	0.031005234
22	0x3d1c6a9f	0.03818762
23	0x3d6f30f7	0.058396306
24	0x3e031a22	0.12802938
25	0xbcbfde40	-0.023421407
26	0xbd6f0bea	-0.05836097
27	0xbdc05440	-0.093910694
28	0x3e066e83	0.13128094
29	0x3ddbc6c5	0.10731272
30	0x3d8683b0	0.06568086
31	0x3ce94423	0.028474873
32	0x3d716a6d	0.058939386
33	0xbdc89f8c	-0.09796056
34	0xbd800d42	-0.06252529
35	0x3da7794b	0.08177432
36	0xbdeb1d8b	-0.11480244
37	0xbe01a37d	-0.12660022
38	0xbda33b0d	-0.079702474
39	0x3cf3f2a0	0.029778779
40	0x3e0b7a7b	0.13620941
41	0xbd27aa11	-0.040933672
42	0xbdab4862	-0.08363415
43	0x3b3e6b87	0.002905579
44	0x3ca6f2a4	0.020379372
45	0xbcfb003a	-0.030639756
46	0x3dca8fc6	0.09890704
47	0x3b59d0da	0.0033236057
48	0xbdcc2ec3	-0.099698566
49	0x3dc6a6e7	0.09699803
50	0xbde61b81	-0.11235715
51	0xbdb1e0d4	-0.08685461
52	0xbd709012	-0.058731146
53	0x3db5da6a	0.0887955
54	0xbc0d9e65	-0.008643721
55	0xbc687075	-0.014186968
56	0x3cca8f9e	0.024726685
57	0xbdcd9191	-0.1003753
58	0x3d04ac16	0.032390676
59	0xbda10a97	-0.07863348
60	0x3d7602b5	0.060061175
61	0x3cd58e4d	0.02606883
62	0x3d6f3f5c	0.058410034
63	0x3d8526d2	0.06501545
64	0x3de649b4	0.112445265
65	0x3d37b1a4	0.044847146
66	0xbc9a31ab	-0.018822512
67	0xbc82df5d	-0.015975649
68	0x3d136914	0.035988882
69	0x3d91784d	0.07103024
70	0xbcbdf7cc	-0.023189448
71	0xbd27d308	-0.04097274
72	0xbdafe56e	-0.08588682
73	0xbcc70491	-0.02429417
74	0xbdaae3c8	-0.08344227
75	0x3dc41b68	0.0957554
76	0xbdad500b	-0.084625326
77	0x3dc4f5ee	0.0961722
78	0x3e0dee9e	0.13860556
79	0xbdea7f2a	-0.11450036
80	0x3d1a568f	0.037680205
81	0x3e05c382	0.13062862
82	0x3c8b0c1e	0.016973551
83	0xbd86ee87	-0.06588464
84	0xbc8dee0e	-0.017325427
85	0x3c763c9f	0.015029102
86	0xbc235fe2	-0.009971591
87	0x3dcedf2f	0.10101163
88	0x3df764a9	0.12079746
89	0xbd5f8c8a	-0.054577388
90	0x3cc6903c	0.024238698
91	0xbc8ba8d9	-0.017048286
92	0x3e07ed88	0.13274205
93	0x3ca975c0	0.02068603
94	0x3d117244	0.035509363
95	0xbe1e5ebe	-0.15465829
96	0x3d69bc4a	0.057064332
97	0x3cb66406	0.022264492
98	0xbe05b648	-0.13057816
99	0x3d1f2de0	0.03886211
100	0xbd993aca	-0.07481916
101	0x3c953ed6	0.01821844
102	0xbd057fd6	-0.032592617
103	0x3db0d8af	0.08635079
104	0xbd83b23d	-0.06430481
105	0x3dd1ac86	0.10237984
106	0xbd513b08	-0.051081687
107	0xbd78aa3e	-0.06070923
108	0xbcb7498a	-0.022373933
109	0x3d874c69	0.06606371
110	0xbda658d9	-0.08122415
111	0xbd945985	-0.07243637
112	0xbe08c2ff	-0.13355635
113	0x3d2c3ddb	0.042051177
114	0xbd95ce1e	-0.07314704
115	0x3d485623	0.04891027
116	0xbcb70866	-0.022342872
117	0x3da9987d	0.08281038
118	0xbd169c5f	-0.03677022
119	0xbb4e9294	-0.0031520473
120	0x3d8e5875	0.069504656
121	0x3cca1782	0.024669413
122	0x3d013587	0.03154519
123	0xbcce4372	-0.025178645
124	0xbd3153ac	-0.043292686
125	0xbdb2d038	-0.08731121
126	0x393c1682	0.00017937462
127	0xbda12ec5	-0.07870249
128	0xbd53fd9f	-0.051755544
129	0x3d91ba99	0.07115669
130	0x3e1952d9	0.1497301
131	0xbe1688c7	-0.14700614
132	0xbe19cd63	-0.15019755
133	0x3d1c7efe	0.038207047
134	0xbca475dd	-0.020075733
135	0x3da3a7c1	0.07990981
136	0xbc4aa9ce	-0.012369586
137	0x3c05e5e4	0.008172486
138	0x3e11dad7	0.14243637
139	0x3d8c88d1	0.06862033
140	0xbd84fbf5	-0.064933695
141	0x3da0db89	0.07854373
142	0x3e175b5d	0.14780946
143	0xbe0695a5	-0.13143022
144	0x3d2aad57	0.041669216
145	0x3e21abb2	0.15788153
146	0x3cf3a18a	0.029740114
147	0xbd164c66	-0.036693953
148	0xbd3dad38	-0.046307772
149	0x3d975095	0.07388417
150	0x3c1114ca	0.008855054
151	0xbd688fe5	-0.056777854
152	0x3d7fe702	0.062476166
153	0x3d6e4669	0.058172617
154	0x3e19f81a	0.1503605
155	0x3d2d3b42	0.04229284
156	0x3b363545	0.0027802747
157	0xbdbc1210	-0.09183133
158	0xbd77df54	-0.060515717
159	0xbe0743ec	-0.13209504
160	0x3d8ae46f	0.067818515
161	0xbdd28107	-0.10278516
162	0x3d8cfce5	0.06884173
163	0x3d4879fd	0.048944462
164	0x3daf6ba5	0.085654534
165	0x3d747c80	0.059689045
166	0xbd6aed93	-0.057355475
167	0x3dae4d37	0.08510821
168	0xbd6b66a5	-0.057470936
169	0x3d04611d	0.032319177
170	0x3c11a469	0.008889296
171	0xbce1aae6	-0.027547311
172	0xbd82c02c	-0.0638431
173	0x3c7b11e8	0.015324093
174	0x3d9e3017	0.07724016
175	0x3d8e4ca3	0.06948211
176	0x3cce0891	0.02515057
177	0xbcd49d71	-0.02595398
178	0xbd5d4f54	-0.05403073
179	0xbe0858f9	-0.1331519
180	0x3cec078f	0.028812198
181	0xbd36db71	-0.04464287
182	0x3c7f4d3c	0.015582379
183	0xbde835f2	-0.11338414
184	0xbd9dd15c	-0.07705948
185	0xbd042a18	-0.032266706
186	0x3e191e1f	0.14952897
187	0xbd866d01	-0.065637596
188	0xbcd92ea7	-0.026511503
189	0xbdaf2376	-0.085516855
190	0x3da9011b	0.08252164
191	0xbcc437cc	-0.023952387
192	0xbd8567ab	-0.06513914
193	0x3b97ce27	0.0046327296
194	0x3dc5141d	0.09622977
195	0x3cc05771	0.023479195
196	0xbd186fbd	-0.037215937
197	0x3dd2b2c1	0.10288001
198	0xbd6a1581	-0.057149414
199	0xbd3b7773	-0.045768213
200	0xbc1950de	-0.009357659
201	0xbcb37d43	-0.021910315
202	0xbd873fa0	-0.066039324
203	0x3d618765	0.055060763
204	0x3df98e09	0.12185294
205	0xbdbee6b5	-0.093213476
206	0xbdb93fcc	-0.090453714
207	0x3c8a4902	0.016880516
208	0x3c651bee	0.01398371
209	0x3c78e340	0.015190899
210	0x3e035674	0.12825948
211	0xbd7f7671	-0.062368814
212	0x3d24fcdb	0.040280204
213	0x3dd32f44	0.103117496
214	0x3d5af081	0.05345202
215	0xbe1095c2	-0.14119628
216	0x3dbd7128	0.092500985
217	0x3d041886	0.03224995
218	0x3deb006d	0.114746906
219	0x3d33b8e8	0.043877512
220	0xbb74560e	-0.0037282738
221	0x3e00f436	0.12593159
222	0x3c3d5ceb	0.011557798
223	0xbe02210a	-0.12707916
224	0xbdf60ec9	-0.12014539
225	0xbbd0c6bb	-0.006371347
226	0xbc205eac	-0.0097881965
227	0x3e137110	0.14398599
228	0x3c2272a6	0.00991503
229	0xbe1ca3db	-0.15296881
230	0x3cca8909	0.024723547
231	0xbdfdfee8	-0.12402135
232	0xbd09077a	-0.033454396
233	0x3c66e4b7	0.014092616
234	0xbd80170d	-0.062543966
235	0xbd7de36c	-0.061984465
236	0x3c7c335d	0.015393105
237	0xbc49efb5	-0.012325217
238	0x3df594dd	0.11991284
239	0xbd01a9f5	-0.031656224
240	0xbb4f2278	-0.0031606238
241	0xbe1f4eeb	-0.15557449
242	0xbd7e4541	-0.062077764
243	0x3b622c69	0.0034511334
244	0x3d332180	0.04373312
245	0xbb906323	-0.0044063493
246	0xbdcca913	-0.09993186
247	0xbd01280b	-0.03153233
248	0x3cad75f6	0.021174412
249	0x3b12c9b1	0.002239805
250	0x3dec5ab0	0.11540735
251	0xbdc20e6b	-0.09475406
252	0x3db48f88	0.08816439
253	0xbd870b99	-0.06594009
254	0x3b9a6b42	0.004712493
255	0x399630e0	0.00028646644

inference_model.rnn.bias_ih_l1 f4 [192]
0	0x3dd1fd3b	0.10253378
1	0xbd76dd69	-0.060269747
2	0x3e1f190d	0.155369
3	0x3b1f03cb	0.0024263735
4	0x3d8edd72	0.06975831
5	0x3dc9fbe4	0.098624974
6	0xbd82c7bd	-0.06385753
7	0xbd4a70ca	-0.04942397
8	0x3e12aa23	0.14322715
9	0x3d38091b	0.04493056
10	0xbd62d55e	-0.055379264
11	0xbd91465c	-0.07093498
12	0x3e0ffc50	0.14061093
13	0xbd1a7727	-0.03771129
14	0xbda8d6a9	-0.08244068
15	0x3cebd976	0.028790217
16	0x3df0705b	0.1174018
17	0x3d1beee0	0.038069606
18	0xbd0f8489	-0.035038505
19	0xbd76d925	-0.06026568
20	0x3c54aa59	0.012980067
21	0xbdc17f5e	-0.094481215
22	0xbd747d52	-0.059689827
23	0x3d8ec96b	0.06972011
24	0xbd9da045	-0.076965846
25	0xbd8c7541	-0.06858302
26	0x3dd9021f	0.10596108
27	0x3e1334e5	0.14375646
28	0x3d820e27	0.063503556
29	0xbd20885f	-0.039192554
30	0xbdc39df0	-0.095516086
31	0xbd1f8942	-0.03894926
32	0x3dd1c65a	0.10242911
33	0xbdcb9347	-0.099402
34	0xbd9a0710	-0.07520878
35	0xbd011c7d	-0.03152131
36	0x3dba1e1d	0.09087775
37	0x3bf83940	0.007575184
38	0xbde5a6ae	-0.11213432
39	0x3c7abc6d	0.015303713
40	0xba8ce8a9	-0.001075049
41	0x3b14e806	0.0022721305
42	0x3cc9a69d	0.02461558
43	0xbd4893a4	-0.048968926
44	0xbd99cdb6	-0.075099394
45	0x3dd52c22	0.10408808
46	0xbd85c30d	-0.065313436
47	0x3c2e91d9	0.01065489
48	0xbdb9e9a0	-0.090777636
49	0x3c445cb9	0.011984997
50	0x3e0a445d	0.13502641
51	0x3da492f2	0.0803584
52	0xbdb952a7	-0.09048968
53	0x3d48df6e	0.049041204
54	0x3d67d357	0.056598034
55	0x3d8580ca	0.06518705
56	0x3c172312	0.00922467
57	0x3dff3259	0.12460775
58	0xbd9aa848	-0.07551628
59	0x3d13a169	0.036042605
60	0xba1e8e6a	-0.0006048443
61	0x3c9d4808	0.019199386
62	0xbd514e9d	-0.051100362
63	0x3dd2967f	0.10282611
64	0xbc658320	-0.014008313
65	0xbe1fe828	-0.15615904
66	0x3d32db81	0.043666366
67	0xbb20e655	-0.002455135
68	0xbac88f2f	-0.0015301461
69	0xbcb61f6f	-0.022231786
70	0xbdee4cdd	-0.11635754
71	0xbe202131	-0.15637662
72	0x3d419657	0.047262516
73	0xbcf6fadc	-0.030148916
74	0xbdcefc41	-0.10106707
75	0xbddd9a9a	-0.108205035
76	0xbd0bef6f	-0.03416389
77	0xbb597515	-0.0033181359
78	0xbe1a6619	-0.1507801
79	0xbdcf391e	-0.10118316
80	0xbd936e26	-0.071987435
81	0x3c8f2d93	0.017477786
82	0xbddade56	-0.106869385
83	0xbd75f38d	-0.06004672
84	0xbe324793	-0.17410116
85	0xbdb6030f	-0.08887302
86	0x3dc270c1	0.09494162
87	0xbdd76ed9	-0.105191894
88	0x3cc0fc07	0.023557676
89	0xbc16adba	-0.009196693
90	0xbda9e9ed	-0.08296571
91	0x3d2ef146	0.042710565
92	0xbe1a4786	-0.15066347
93	0xbd18a0c4	-0.037262693
94	0xbe272861	-0.16323997
95	0xbdb55ff1	-0.0885619
96	0xbdda28a6	-0.10652284
97	0xbe0bc1f1	-0.13648202
98	0xbd93591a	-0.07194729
99	0xbd9830a4	-0.074311525
100	0xbe1824c0	-0.14857769
101	0x3bbe55c0	0.005808562
102	0xbc6910b6	-0.014225176
103	0x3d073f14	0.03301914
104	0xbda31d3d	-0.07964561
105	0xbdacfb4b	-0.08446368
106	0xbe221f13	-0.15832166
107	0x3c22af79	0.009929531
108	0xbde99aee	-0.114065036
109	0xbd3469a9	-0.044046078
110	0xbe4a8449	-0.19777025
111	0xbdc98cf9	-0.098413415
112	0xbd13ed52	-0.036115
113	0xbd619034	-0.055069163
114	0xbda53174	-0.08066073
115	0xbdd38383	-0.10327818
116	0xbcf885fc	-0.030337326
117	0x3cfad483	0.030618912
118	0xbd8a7a6a	-0.0676163
119	0xbdabb681	-0.08384419
120	0xbdcd776a	-0.10032542
121	0xbe335a50	-0.1751492
122	0xbdec068d	-0.11524687
123	0xbd8eb990	-0.06968987
124	0xbdbc7cf7	-0.09203523
125	0x3d2b1bb6	0.041774474
126	0x3d14b021	0.036300782
127	0x3d3fb9ec	0.04680817
128	0x3df17086	0.1178904
129	0xbc40bdd5	-0.0117640095
130	0x3e060b56	0.13090262
131	0x3dc1da03	0.094654106
132	0xbd87baf6	-0.06627457
133	0x3d45bef3	0.048277806
134	0x3ccaa3eb	0.024736365
135	0x3de7bf37	0.11315768
136	0x3e01872d	0.12649222
137	0x3cf3a010	0.02973941
138	0x3daed98f	0.0853759
139	0x3d110759	0.035407398
140	0xbcd1ec9b	-0.025625518
141	0x3d2cfa6a	0.042231
142	0x3e0df5f9	0.13863362
143	0xbdb7f420	-0.0898211
144	0x3dc8f79c	0.09812853
145	0x3e102578	0.14076793
146	0xbc7870e3	-0.015163633
147	0xbdc84c33	-0.09780159
148	0xbd50570d	-0.050864268
149	0xbd878d4d	-0.06618748
150	0x3d893981	0.06700421
151	0x3d94ca3e	0.07265137
152	0x3ddb47aa	0.10707028
153	0xbdfbf0c8	-0.12301785
154	0xbcb9489b	-0.022617629
155	0x3d183e88	0.03716901
156	0x3df65173	0.12027254
157	0x3e1bbc5e	0.15208575
158	0x3c4a6ca9	0.012355008
159	0xbc9fce7a	-0.019507635
160	0x3dce8d95	0.100855984
161	0xbab24bfe	-0.001360297
162	0xbda8ad57	-0.08236187
163	0x3d1ebdaa	0.038755096
164	0x3d82b34c	0.063818544
165	0xbd7de376	-0.0619845
166	0x3dac7503	0.08420756
167	0x3dc7c5b9	0.097545095
168	0xbdc46277	-0.09589093
169	0xbb55196e	-0.0032516378
170	0xbd5aaecf	-0.053389367
171	0x3d3ee798	0.046607584
172	0x3dd99a5b	0.10625144
173	0xbda48ece	-0.0803505
174	0xbd24acd9	-0.040203903
175	0x3d8cc27d	0.06873033
176	0x3da92873	0.08259668
177	0x37da233c	2.6004032e-05
178	0x3d6a30c3	0.05717541
179	0xbcd25f90	-0.025680333
180	0x3e13b44f	0.14424251
181	0x3cad27fc	0.02113723
182	0xbe214e43	-0.1575251
183	0xbe13153d	-0.1436357
184	0x3e00bc60	0.1257186
185	0xbdc27c26	-0.09496336
186	0x3c8ae65b	0.016955545
187	0x3de36675	0.111035265
188	0x3c9916e6	0.018687677
189	0x3e20cb44	0.1570254
190	0xbe040117	-0.1289104
191	0xbdf50ae1	-0.119649656

inference_model.rnn.bias_hh_l1 f4 [192]
0	0x3dab7655	0.083721794
1	0x3d008d62	0.031384833
2	0x3e192e3b	0.14959042
3	0xbd1d062b	-0.03833596
4	0xbd9e485d	-0.07728646
5	0x3d908f20	0.07058549
6	0x3dd4241f	0.10358452
7	0x3cce83ea	0.025209386
8	0xbd27364c	-0.040823266
9	0x3cacd732	0.021098707
10	0xbdacf73d	-0.084455945
11	0xbbc70ca3	-0.0060745045
12	0x3bebb254	0.007192889
13	0x3e0851e8	0.13312495
14	0xbde6826b	-0.11255344
15	0x3e1d1dd1	0.15343405
16	0x3de593d1	0.11209834
17	0xbd3ecf5e	-0.04658448
18	0x3d307d8f	0.043088492
19	0xbcda94d3	-0.026682293
20	0x3a2ab17c	0.00065114326
21	0x3e0324c6	0.12806997
22	0xbc3b923b	-0.011448438
23	0x3d00b332	0.031420894
24	0x3e079d68	0.1324364
25	0x3d97b856	0.07408206
26	0xbdbca105	-0.092103995
27	0x3d2c6994	0.042092875
28	0x3dbfc51b	0.09363767
29	0x3d5f2578	0.054479092
30	0x3db3dce9	0.0878237
31	0x3d4130ce	0.047165684
32	0xbd13c973	-0.03608079
33	0xbc17ab9c	-0.009257223
34	0xbd1ef9ac	-0.038812324
35	0x3d38cb32	0.045115657
36	0x3e0a6a29	0.1351706
37	0x3cbc9736	0.023021322
38	0xbcc16cde	-0.023611482
39	0x3e09fcba	0.13475314
40	0x3dc6eeea	0.09713538
41	0x3e19f8d8	0.15036333
42	0x3c77f53b	0.015134151
43	0xbdb7d50f	-0.089761846
44	0x3d0ac8de	0.033882968
45	0xbc03586e	-0.008016689
46	0x3d90854d	0.07056675
47	0x3d739722	0.059470303
48	0xbc390f5b	-0.011295165
49	0x3d3472c0	0.044054747
50	0x3ae357ae	0.0017344856
51	0x3d9b7b18	0.07591838
52	0xbdaf930a	-0.08572967
53	0xbdd854b2	-0.10563029
54	0x3d306f03	0.04307462
55	0xbdbeec53	-0.09322419
56	0x3dd57525	0.10422734
57	0x3dafbd05	0.085809745
58	0x3dec831c	0.11548445
59	0xbd2e1c79	-0.042507622
60	0xbd17472f	-0.03693312
61	0x3dded3ff	0.10880279
62	0x3dbcf966	0.092272565
63	0xbda72a61	-0.0816238
64	0xbc6bb41f	-0.014386206
65	0xbde9a479	-0.11408324
66	0xbe261e23	-0.16222434
67	0x3d85136b	0.06497844
68	0x3ad00ddc	0.0015873271
69	0xbe27ff14	-0.16405898
70	0xbd149d4b	-0.03628282
71	0xbc891319	-0.01673274
72	0xbcd4d87f	-0.02598214
73	0xbddce462	-0.10785748
74	0xbc93bf0b	-0.018035432
75	0xbd3eb770	-0.04656166
76	0x3d082670	0.03323978
77	0xbd97e19b	-0.07416078
78	0xbe0f6799	-0.14004363
79	0x3d72ec3d	0.059307326
80	0xbe373fe2	-0.17895463
81	0xbdce8e04	-0.10085681
82	0x3c99fce0	0.018797338
83	0xbd82b3ef	-0.06381976
84	0xbe36a7b5	-0.17837413
85	0xbe1c058e	-0.15236494
86	0xbbe181fc	-0.0068819504
87	0xbd8d154e	-0.06888829
88	0xbc898404	-0.016786583
89	0xbcc3ea8e	-0.023915555
90	0xbd4c9590	-0.04994732
91	0xbccbb402	-0.024866108
92	0x3c3f70aa	0.011684576
93	0x3d2a9ca3	0.041653287
94	0xbd7e7d6c	-0.06213133
95	0x3c8c597d	0.017132515
96	0xbd81621f	-0.06317543
97	0xbdfb8a46	-0.12282233
98	0x3cbea2e1	0.023271026
99	0xbdfd18a7	-0.12358218
100	0xbd313e4b	-0.043272298
101	0xbdeb85df	-0.11500143
102	0xbd8abe9e	-0.067746386
103	0xbdeb4bfc	-0.11489102
104	0xbe17c0e3	-0.14819674
105	0xbe08f0fa	-0.13373175
106	0x3c853ab0	0.016263336
107	0xbe2fcade	-0.17167231
108	0xbdb4df38	-0.08831638
109	0xbd005642	-0.03133226
110	0xbe4dcd8f	-0.20097946
111	0xbdd1ed6b	-0.10250362
112	0xbe0ea44a	-0.13929859
113	0xbe33edce	-0.17571184
114	0xbddbf82b	-0.10740694
115	0xbd570b5b	-0.052501064
116	0xbe06f061	-0.13177635
117	0xbc0865b3	-0.008325028
118	0xbc259026	-0.010105168
119	0xbdfbbcb5	-0.122918524
120	0xbe1d2207	-0.15345012
121	0xbc295a53	-0.010336476
122	0xbe3b4b48	-0.18290436
123	0xbe428dca	-0.189994
124	0x3d1e68c3	0.038674127
125	0xbdf721bf	-0.120669834
126	0xbe2b4fa6	-0.16729602
127	0xbd6e6e20	-0.058210492
128	0x3dd3ad01	0.10335732
129	0xbd10e192	-0.03537137
130	0x3de77899	0.11302299
131	0x3dbe00de	0.09277509
132	0xbe1c3702	-0.15255359
133	0xbe003107	-0.12518702
134	0xbd63cbf8	-0.05561444
135	0xbd67628e	-0.056490473
136	0x3dc9dc62	0.09856488
137	0x3dc3a0d8	0.09552163
138	0x3de526d2	0.11189045
139	0x3d35488c	0.04425864
140	0xbd18be21	-0.037290696
141	0xbd957987	-0.0729857
142	0x3b256546	0.0025237366
143	0x3e2049cc	0.15653151
144	0x3d422959	0.047402713
145	0x3db3562f	0.087566726
146	0x3de6bdee	0.11266695
147	0x3c703439	0.014660888
148	0xbd7a88bb	-0.061165553
149	0xbb994fe8	-0.004678715
150	0xbdbb37a8	-0.09141475
151	0x3d312c6e	0.043255262
152	0x3e16d5af	0.14729951
153	0xbdffa670	-0.12482917
154	0xbcb07e60	-0.021544635
155	0xbd5a4fde	-0.053298824
156	0xbd95e0d8	-0.07318276
157	0xbd3d7120	-0.046250463
158	0xbdd0e871	-0.10200585
159	0xbda48c3e	-0.080345616
160	0x3d97fd5c	0.07421371
161	0xbdd99ae0	-0.10625243
162	0x3c700d8a	0.014651665
163	0x3d454ef1	0.048170988
164	0x3d6c0017	0.057617273
165	0x3dbc9c57	0.09209507
166	0xbdb4686b	-0.08808979
167	0xbdc3df42	-0.095640674
168	0xbd5f7861	-0.05455816
169	0x3d97c38c	0.074103445
170	0x3d3d8810	0.046272337
171	0xbda75cd5	-0.08172003
172	0x3d84321f	0.06454872
173	0xbd60d8d6	-0.05489429
174	0x3e1d11cd	0.15338822
175	0x3e018830	0.12649608
176	0x3d44fdc1	0.04809356
177	0xbe21abcd	-0.15788193
178	0xbd9cc314	-0.07654396
179	0x3c039b9b	0.008032705
180	0x3dc6e0b3	0.09710827
181	0x3d7aeab3	0.061258983
182	0x3d907bb0	0.070548415
183	0xbd9bd196	-0.07608335
184	0x3e185bbc	0.14878744
185	0xbd452f8e	-0.048141055
186	0xbd6fd84d	-0.05855589
187	0x3e0bfdf6	0.13671097
188	0x3cd14eff	0.025550364
189	0xbda995d1	-0.08280528
190	0x3cef9d10	0.029249698
191	0xbdd158a6	-0.102219865
