class_full_dkf.pt (torch, 185526 bytes, 24 tensors)

inference_model.rnn.weight_ih_l0 f4 [192, 3]
000000 06 a0 f6 bd 84 c1 95 bd 3c eb 52 3d 80 66 24 bd
       -0.12042241 -0.07312301 0.05149387 -0.040136814
000010 9a e1 e7 3d 60 24 3b bd 2f ef 8b bc 22 d3 c4 3c
       0.11322327 -0.045688987 -0.017081825 0.024026457
000020 59 3a b5 bd 40 94 fa 3d bc 73 34 bd 49 ca bd bb
       -0.088490196 0.12235308 -0.044055685 -0.0057919365
000030 86 e4 93 bd 96 3c ce bb fe ec 95 bd 6c ca c5 3c
       -0.07221322 -0.0062938435 -0.07320593 0.024144374
000040 35 69 2b bd dc 77 d6 3d 8b 99 8d bd 82 3b 08 bd
       -0.04184838 0.1047208 -0.069140516 -0.033259876
000050 a8 71 46 3d cd da 0f 3c 21 c4 93 bb 8d fc 82 3c
       0.048448235 0.0087801935 -0.0045094644 0.015989566
000060 64 7e b4 3d 68 f8 e2 3d 15 c3 5d 3d 4d 6e dc 3d
       0.088131696 0.11082536 0.054141123 0.10763226
000070 0d a4 96 bc bc ed ea 3b 55 ed 30 bd b8 4e b7 bd
       -0.018388772 0.0071694534 -0.043195087 -0.08950561
000080 d9 fd ad bc 6a 3f 3a 3c 08 58 59 3d 9f 5f e8 3c
       -0.021239208 0.011367658 0.05306247 0.028365908
000090 65 e9 a1 bd 17 c9 f0 3d 01 e0 bb 3d f4 d7 77 bd
       -0.079058446 0.11757105 0.09173585 -0.060508683
0000a0 2f 2a e5 3d aa 7f 10 bd 19 20 fd 3c b2 81 f8 bc
       0.111896865 -0.035278 0.030899094 -0.030335281
0000b0 5e dd a4 3d 35 4d b5 bd 0d 1f f4 3d 4e c7 77 3d
       0.08050035 -0.08852617 0.11919985 0.060492806
0000c0 f2 02 d9 3d 3f 72 a6 3c 1f 73 8d bd f2 2c 05 bd
       0.10596265 0.020318149 -0.06906723 -0.032513566
0000d0 4e fb 91 bd cd 1f a4 3d 1e cc 83 3d 1b d7 88 bd
       -0.07128011 0.08013878 0.06435417 -0.06681653
0000e0 eb 46 f0 bd f0 67 83 3d 90 d5 c9 3d f7 d0 33 3c
       -0.117322765 0.06416309 0.09855187 0.010975114
0000f0 69 39 e2 3d 84 e1 73 bd 49 b9 81 bd 97 d8 ed bd
       0.11046106 -0.05954124 -0.063341685 -0.11613577
000100 20 c0 ea 3c 0a 16 03 3d 10 55 4c bc 59 a7 f8 3d
       0.028656065 0.03200344 -0.012471452 0.12141294
000110 a0 c3 87 3c 7e 11 1b bd 19 0d e9 3d af bb 89 3c
       0.016572773 -0.03785848 0.11379451 0.016813127
000120 56 70 17 3d 91 21 aa bd 23 01 8f bd af 1a 92 bd
       0.036972366 -0.083071835 -0.06982639 -0.07133996
000130 da d2 80 3d a7 a6 f8 bd 29 20 27 3d 13 af 86 3c
       0.06290217 -0.121411614 0.040802155 0.016440904
000140 63 73 fe 3d e4 de f5 bc 4c 5e b6 bd 56 5d 01 bd
       0.12424352 -0.03001351 -0.089047045 -0.031583153
000150 58 9f 3f 3a 38 cd a9 3d 7f 77 49 bc df b7 a2 bd
       0.0007309816 0.082910955 -0.0122965565 -0.07945227
000160 8f 12 dd 3d 30 d1 64 bd 02 ea e9 3d 04 4d 17 bd
       0.107945554 -0.05586356 0.114215866 -0.036938682
000170 b4 43 9e 3d b4 0c 54 bd bf 63 0a ba 34 12 a6 3d
       0.07727757 -0.051769927 -0.00052791456 0.08108941
000180 86 3c ea bd 74 c6 86 3c bb 50 cb 3d a3 c9 b2 bd
       -0.11437325 0.016452052 0.099275075 -0.087298654
000190 3a 90 92 3a eb 82 15 3d 74 88 3f 3d cb 9c a5 3d
       0.0011181899 0.036501806 0.04676099 0.080865465
0001a0 70 33 4b 3d 1e d9 ce 3d 6f 65 11 3d ea 7e 4b bd
       0.0496096 0.101000056 0.035497125 -0.04968158
0001b0 11 f3 e1 bd c6 5b b2 3b 89 cc 7a 3d 64 be c0 bb
       -0.11032689 0.005443069 0.061230216 -0.0058820713
0001c0 09 a2 f8 3d a8 64 37 bd db b8 03 3d e1 8a 94 3d
       0.12140281 -0.044773728 0.032158714 0.072530515
0001d0 fb 20 fa 3c a7 6b cd 3d 90 7e 1a bd 81 05 90 3d
       0.030533304 0.10030299 -0.037718356 0.070323
0001e0 03 c4 a1 3d de 5f 92 3d ff 35 16 bd 0b b1 85 3d
       0.078987144 0.071471915 -0.03667259 0.06527909
0001f0 6a 47 8e 3b b1 19 6d bd d8 89 e0 bc 80 a1 6d 3d
       0.0043420093 -0.05788583 -0.027409479 0.058015347
000200 fe f4 07 be a9 c6 85 bd 9f 9c 8c 3d e7 7d e9 bd
       -0.13277051 -0.06532032 0.068658106 -0.11400967
000210 71 01 f1 3d b2 fa 8c bd f0 33 22 3d cf 5f 96 bd
       0.11767853 -0.06883754 0.039600313 -0.07342493
000220 f6 5b 8b 3d d7 77 9d bd 41 8b bf bd 82 74 eb 3c
       0.068046495 -0.07688873 -0.093527324 0.028742079
000230 47 50 ee bd 46 78 dd bd f1 4b df 3d 72 15 69 3d
       -0.116364054 -0.10813956 0.109031565 0.056905217
000240 a6 c4 20 bd 7e 70 05 3e 3f 60 96 bd f0 cb 45 3d
       -0.03925004 0.13031194 -0.07342576 0.048290193
000250 fe 77 78 3c 4d 7c 51 3d fb 4b 30 3b eb 82 c6 3d
       0.015165327 0.051143933 0.0026900757 0.09692939
000260 89 8a 8e 3d 80 dc df bc 37 c2 c7 3d 49 ec 9b 3c
       0.06960017 -0.027326822 0.097538404 0.019033568
000270 50 6b b5 bc 8f 92 38 bd 06 c3 71 3c 28 21 14 bd
       -0.022145897 -0.045061644 0.01475597 -0.036164433
000280 e3 a0 4a bd 1b b2 c9 bd e9 cf 98 3c f9 fa 99 3d
       -0.04946984 -0.09848424 0.018653827 0.07518572
000290 6b de b1 bd 07 72 da 3d 4c 44 bd bd e5 ab 57 bd
       -0.08685001 0.1066628 -0.09241542 -0.052654166
0002a0 89 4e 64 3c e4 ae 17 bd 41 be bd 3c a2 1d ad 3d
       0.01393474 -0.037032023 0.02316201 0.08452918
0002b0 7e 78 a0 3d 56 db bd bd 66 d4 d3 bd 0a 6e d6 3d
       0.07835482 -0.09270351 -0.10343246 0.10470207
0002c0 b4 3c a0 bd 4a 26 fa 3d 96 21 45 3d 1c 9b a7 bc
       -0.07824078 0.12214334 0.048127733 -0.020459704
0002d0 8b 43 9e bc d4 06 17 3d 85 6a 0d bd d0 c2 e4 bd
       -0.019319316 0.036871746 -0.034525413 -0.1116997
0002e0 2a 1f ee bc 8d ce bd bd 67 5a be 3d 52 7f 7c 3c
       -0.029067595 -0.09267912 0.09294587 0.015411215
0002f0 d7 ea 83 bd 54 14 cd bb c6 f9 bf 3d d8 48 05 be
       -0.064412765 -0.006258527 0.093738124 -0.13016069
000300 86 55 7a 3d e0 ea b3 bc 3e e7 c7 bb f7 aa e8 3d
       0.061116718 -0.021962583 -0.0061005643 0.11360734
000310 98 bf bb bd f4 ab 79 3d 3d 27 18 3d 29 29 a6 bd
       -0.09167403 0.060955003 0.037146796 -0.081133194
000320 5b 1e 70 3d 9d a5 3d bc 6c c6 6b 3d c5 0e 1e bd
       0.0586227 -0.01157513 0.057562277 -0.038588304
000330 fb b0 b2 3d 9a 8e f1 bd a5 01 21 bc 74 dd ad 3a
       0.087251626 -0.11794777 -0.009827052 0.0013264851
000340 b6 22 c1 3d 15 79 84 3c a4 77 8b bc 75 e2 a2 3d
       0.09430449 0.016171018 -0.017024823 0.079533495
000350 ef 75 aa bc 36 48 02 be 24 6d ac bd f2 25 d5 bd
       -0.020808188 -0.12722859 -0.084192544 -0.10407628
000360 97 74 01 3e 29 eb f6 bc bd 65 b8 bd e8 b0 6a 3d
       0.12642132 -0.03014143 -0.0900378 0.057297617
000370 0e 3c d3 3d c5 fe 1e bd 99 59 b2 bd 2d c1 19 bc
       0.10314189 -0.038817186 -0.08708496 -0.009384436
000380 b6 12 db 3d fd fb 1f 3d 5c fc 8c 3d 3f 94 2a bc
       0.10696928 0.039058674 0.06884071 -0.010411321
000390 0a 52 dc 3d 3e 11 c8 3d d1 26 bf 3d 64 43 02 be
       0.10757835 0.09768914 0.093335755 -0.1272102
0003a0 67 c5 e0 3d 5a f6 11 bd 4e 5a 18 3c 45 37 0a bd
       0.109751515 -0.03563533 0.009298874 -0.033744115
0003b0 96 7d 29 3d dd 5d bd bd 80 4c 4c bd c8 24 ea bc
       0.041379534 -0.092464186 -0.049877644 -0.028581992
0003c0 52 81 ed 3c 0b 50 12 bd a5 5c c1 3d d6 00 c5 bc
       0.028992329 -0.035720866 0.09441499 -0.02404825
0003d0 e2 aa 1e 3b 80 20 b6 bd 6b 87 1a 3d 8f 7a 96 3d
       0.002421074 -0.08892918 0.0377268 0.07347595
0003e0 84 a2 4c bc ed 58 bc bd 22 68 8c bd 2a e8 08 be
       -0.012489919 -0.09196649 -0.06855799 -0.13369814
0003f0 c8 9e 5c 3d a2 46 41 bd c7 a9 ac 3d ea d3 d3 bd
       0.053862363 -0.0471865 0.0843082 -0.10343154

inference_model.rnn.weight_hh_l0 f4 [192, 64]
000000 43 11 05 bd 0a 65 47 bc 0c 6b e3 bc db 04 5a 3d
       -0.032487165 -0.012170086 -0.027761005 0.053227287
000010 76 5c 36 3d 49 d8 f7 3d 55 4e b2 bd 22 a0 ed 3d
       0.04452177 0.121018 -0.08706347 0.116028085
000020 67 c4 be 3c 67 ec 3a 3b 5f 3b da 3d ea 2c ea 3c
       0.023287011 0.0028522254 0.106558554 0.02858587
000030 66 41 74 bd 2f 71 53 bd 26 2b aa 3c c7 db b5 bc
       -0.05963268 -0.051621612 0.020772528 -0.022199525
000040 bd de 01 be 07 16 04 bd 3b c5 a9 3b 1c 47 cd bb
       -0.12682624 -0.03224757 0.0051809824 -0.0062645804
000050 c3 94 2c bd b2 cd 54 3b 89 38 02 bd 7e d1 a2 bd
       -0.042134058 0.0032471237 -0.031792197 -0.07950114
000060 88 8d c9 bd 6a 16 a2 bd 0e 32 89 bd da 7a 6a 3d
       -0.09841448 -0.079144314 -0.06699 0.057246067
000070 96 a9 a2 3d e7 4b 5a bc 7f ca 42 3d ea 2a d2 3d
       0.07942502 -0.013323761 0.047556397 0.102620915
000080 de 3a e8 3d a1 c2 87 bd cb b0 22 bd f9 ef 23 3d
       0.11339353 -0.066289194 -0.039719384 0.040023778
000090 cb 92 07 bd ea 79 e3 bd 79 a8 a5 ba 85 bb eb 3d
       -0.033098977 -0.11107238 -0.001263871 0.11510376
0000a0 70 d4 c5 bd 3c e1 5c bc 2c 7f 43 bd fd 03 4c bd
       -0.0965966 -0.013481434 -0.047728702 -0.04980849
0000b0 4e 29 8a bd d7 d6 99 bd 06 de 9b 3d a8 5f 41 3d
       -0.067461595 -0.075116806 0.07610707 0.047210366
0000c0 b8 aa 95 3d 2a 08 85 3d cf ab 68 3d 48 c0 d2 3d
       0.07307953 0.06495698 0.056804474 0.10290581
0000d0 ca c2 17 3d f1 08 8c 3d 0a 10 4a 3d c6 3e cf 3d
       0.037051 0.06837643 0.049331702 0.10119395
0000e0 b7 9f a2 3d d3 f8 f6 bc 39 e8 d0 3d f0 23 9d 3d
       0.079406194 -0.030147946 0.10200543 0.0767287
0000f0 eb bd e9 3d ab 53 a2 3d 27 ef bf 3d c2 6e 4f 3d
       0.11413177 0.07926115 0.093717866 0.050642736
000100 9c 57 60 3d 9d a5 8c 3d 2f 10 1b 3d 14 7a 23 3d
       0.05477105 0.06867526 0.03785723 0.039911345
000110 88 0f 9a 3d 37 6e 97 3d bc d2 39 3d ba 55 04 3e
       0.075224936 0.07394069 0.045366988 0.12923327
000120 1a 6a 33 3d b5 ef 96 3d bb f6 a4 3d de 13 8c bd
       0.04380236 0.07369939 0.080548726 -0.06839727
000130 55 b2 db bd 2e fd c2 bd 12 23 98 bc 1e 9a 1d 3d
       -0.107273735 -0.095209464 -0.01857141 0.038477056
000140 6c 35 25 3d 8f 5e bd bd cf 05 56 3d 22 4d ac bb
       0.04033415 -0.09246551 0.052251633 -0.0052582184
000150 2a c4 88 bd 40 3a 85 bd 1d 36 10 3c 96 cf e7 3d
       -0.0667804 -0.06505251 0.008801964 0.11318891
000160 26 9e c1 bd a6 a4 29 3d b0 43 2e bb af f2 d1 bd
       -0.094539925 0.041416787 -0.0026590638 -0.10251366
000170 83 e7 84 bd e7 f1 3d 3d c0 a6 9e bd 02 b1 f5 3d
       -0.0648947 0.046373274 -0.07746649 0.11996652
000180 ba 63 c4 3d 0e b7 c0 bd 3c de b6 bd 09 98 b8 bd
       0.09589334 -0.09409915 -0.089291066 -0.090133734
000190 bd b4 da bd c6 7e 09 3e 1c 2d 59 bd 71 d5 08 be
       -0.10679004 0.13427266 -0.053021535 -0.13362671
0001a0 b1 8d c6 bd e5 02 52 3d d5 b8 5d 3d 2b 53 d6 bc
       -0.09694994 0.05127229 0.054131348 -0.026162704
0001b0 f2 63 33 bc 64 07 43 3d 40 b3 6c bc c4 3c f0 bd
       -0.010949122 0.04761447 -0.014447033 -0.1173034
0001c0 6d 31 bd 3d 29 f1 97 3d d8 73 a2 3b c6 2d 73 ba
       0.09237943 0.074190445 0.0049576573 -0.0009276535
0001d0 bf 14 e1 3c f8 2f 9e 3c ff 04 76 3d 29 bb ad 3d
       0.027475713 0.019309983 0.06006336 0.084829636
0001e0 7e fa ac 3d 34 2d 06 3d 43 0c cd 3c 54 d6 25 3d
       0.08446215 0.032757953 0.02503026 0.040487602
0001f0 b8 2f 4f 3d d0 27 ff bd 4e 1c 28 bd 18 dd 22 3d
       0.050582618 -0.124587655 -0.04104262 0.039761633
000200 8d 6c fc 3d 43 2a 6c 3d ff 05 ca 3d 99 53 6e 3d
       0.12325392 0.05765749 0.09864425 0.058185194
000210 9c 32 4d 3d f4 21 81 3c bd 80 14 3d 33 85 95 3d
       0.050097093 0.01576326 0.036255587 0.07300796
000220 02 36 27 bb 8a 7a d6 bc 9c ad d6 3d cc 94 ba 3d
       -0.002551437 -0.026181478 0.10482332 0.09110412
000230 01 29 4a 3d 8a 46 2b 3d f8 4e de 3d 4b 11 83 3d
       0.04935551 0.04181532 0.10854906 0.06399783
000240 dc 1d a3 3d 2f 39 8f bd 65 e6 c0 3d 2c e5 dc 3c
       0.079646796 -0.06993329 0.09418944 0.026964746
000250 3a 0a 93 bd f7 b5 ff bc c4 cd 10 bd 26 4f ea bd
       -0.07179685 -0.031214697 -0.035352483 -0.114408776
000260 0f 85 ff bd 89 80 59 bd f9 73 b4 3c 2c 88 65 3d
       -0.12476551 -0.053101096 0.022027956 0.056038067
000270 e7 b5 87 bd eb bf d4 bc 08 4d 31 bd d2 e0 01 be
       -0.06626492 -0.02597042 -0.043286353 -0.12683418
000280 17 e6 81 bd c9 9e 1a bd e4 6e bd 3d cd 68 ca 3d
       -0.06342714 -0.037749086 0.09249666 0.098832704
000290 bb 7f b7 3d 57 5e 00 3e e7 05 b6 bd b1 05 b3 3c
       0.089599095 0.12535988 -0.088878445 0.0218533
0002a0 37 a8 f3 3d ee ca 9b bd 0e d1 28 bd 5e fa 9e 3d
       0.11897319 -0.07607065 -0.041214995 0.077625975
0002b0 47 3f 9c 3d 5d 89 38 bb 82 fb d5 bd b0 63 e6 bd
       0.07629257 -0.0028158047 -0.10448362 -0.11249483
0002c0 c2 3d c7 3d 20 43 ee 3d 9e 75 22 bd 1e 2a 87 bb
       0.09728576 0.11633897 -0.03966295 -0.004124894
0002d0 07 b4 fe 3d 11 a5 83 3d 05 5d 01 3e ac 47 16 3d
       0.12436681 0.06427968 0.1263314 0.036689445
0002e0 61 f6 ba 3c ac ca 0e 3e 6c ee 1a 3d 9e d9 7c bc
       0.02282256 0.139445 0.037825033 -0.015432743
0002f0 84 db 74 bd c7 6b e0 3d 76 72 d5 bd e2 47 6d 3d
       -0.05977966 0.10958057 -0.10422222 0.05792988
000300 35 bb 24 bd d8 61 e6 bd 41 23 2c 3d 23 fe b8 3c
       -0.040217597 -0.11249131 0.04202581 0.02258212
000310 7c 88 d0 3d e1 2d 45 bd 74 61 21 3d 71 35 70 3d
       0.10182282 -0.048139457 0.03939958 0.058644716
000320 e5 2f fb 3b d6 58 be bd ad e6 c2 bc 85 be 05 bc
       0.0076656216 -0.09294288 -0.023791635 -0.008163099
000330 6f 9d d7 bd e3 e4 92 bd 1d c5 44 3d 89 24 60 bc
       -0.10528075 -0.07172563 0.048039544 -0.013680586
000340 99 37 d5 3d 57 81 ee 3d e5 fd 98 bd 80 ca 92 bd
       0.10410995 0.11645763 -0.074703015 -0.0716753
000350 90 d7 95 3d a8 34 4c 3d 90 cd 86 bc 66 69 de bd
       0.07316506 0.049854904 -0.016455442 -0.10859947
000360 72 b2 c6 bd 98 19 d9 3d 29 a0 d0 3d 4c 9c 62 bd
       -0.097020045 0.10600585 0.10186798 -0.055324838
000370 2c 5c f2 bd 4d b5 9e bd f5 5a bb bd 1d dc 3c 3d
       -0.11833987 -0.07749424 -0.09148208 0.046108354
000380 33 b4 30 3d af 20 d9 3d 3b 31 0c 3c 84 6b 83 3a
       0.0431406 0.10601937 0.008556659 0.0010026549
000390 cc de a8 3d 46 99 dc 3c 40 ed ec bd 24 4d 69 bd
       0.0824562 0.026928555 -0.11568689 -0.056958333
0003a0 49 99 d2 bd 80 97 16 bd 5d a2 08 bd 53 fb 94 3d
       -0.10283143 -0.036765575 -0.033357967 0.07274499
0003b0 87 91 ca bc aa b1 0b be bb 38 0c bd f8 06 dc 3c
       -0.024727596 -0.13641992 -0.03423379 0.026858792
0003c0 72 ff f1 3c 8f f7 a8 3d 61 0b ea bd a0 f5 d6 bd
       0.029540751 0.08250343 -0.114279516 -0.10496068
0003d0 13 21 2f 3d f2 7f da bc 48 6f b9 bd 14 40 95 bd
       0.04275615 -0.026672337 -0.09054428 -0.072876126
0003e0 d5 a2 5f bc 56 b8 da 3d 02 99 ca bd 71 4c c1 3d
       -0.013649662 0.106796905 -0.09892465 0.09438408
0003f0 7d 1c cf bd 4d 60 8d bd 42 0b 76 bd c1 1d bd 3c
       -0.101128556 -0.069031335 -0.06006933 0.023085477

inference_model.rnn.bias_ih_l0 f4 [192]
000000 bc 4d 2c 3d 6d 8b c2 3d a6 a9 ce bb 71 65 fc 3c
       0.04206632 0.094992496 -0.0063068448 0.03081009
000010 a9 ed 34 bd 8f 34 0c 3e 7d 03 d7 3d 36 f9 8a 3d
       -0.044171963 0.13691925 0.10498712 0.067858145
000020 af 88 32 3d db 84 36 bb 58 c8 8a 3d 54 50 77 bd
       0.043587383 -0.0027850184 0.06776494 -0.06037934
000030 ff 38 f0 3b 38 83 0a be dc 23 ed bd c5 fa 84 3d
       0.007331013 -0.13526618 -0.11579105 0.06493143
000040 21 9a 8f 3d b3 f1 90 bd 2b 48 05 be ce b4 37 bc
       0.0701182 -0.070773505 -0.13015811 -0.011212541
000050 f5 1e f5 3d b3 36 9d 3d 28 e7 74 bc f9 87 27 bb
       0.11968795 0.07676449 -0.01494769 -0.0025563224
000060 0f e2 e7 3d b0 25 8d 3d 5d 7a ff 3c 65 93 3d 3d
       0.11322414 0.06891954 0.031186277 0.046283145
000070 dd eb bf bd 74 9f b2 bd d4 3e 2e 3d 6a 8a 69 bd
       -0.09371159 -0.087218195 0.042540386 -0.057016768
000080 84 7a 55 bd 77 12 3c bd 8b cd e6 bd d6 46 ce 3d
       -0.052118793 -0.045916047 -0.11269673 0.10072105
000090 d6 72 95 3d d2 88 9a 3d 31 ea 36 3d b1 4d 85 3d
       0.07297294 0.07545628 0.044656936 0.06508959
0000a0 fc 55 7d 3d 07 22 74 3d 0c 52 2c bd 40 6f e6 3d
       0.06184958 0.059602764 -0.042070433 0.11251688
0000b0 0e 47 fa 3c 75 89 a8 bd 93 a6 e3 bd 81 7c cf bd
       0.03055146 -0.08229343 -0.11115756 -0.10131169
0000c0 6a 3c 6b 3d a2 0f 4a 3d d2 39 b7 3d 23 56 1e 3d
       0.057430662 0.049331315 0.08946575 0.038656365
0000d0 35 72 97 bd 3d 4a 70 bd fb d1 31 3d 64 ae d3 3d
       -0.0739483 -0.05866455 0.043413144 0.10335997
0000e0 09 1f 8a bd 29 f4 c4 3d 8f 03 e3 3c 45 e0 c4 3d
       -0.06744201 0.09616882 0.027711658 0.096130885
0000f0 2e 0f b6 bd 52 e6 9b bd 9d 79 d5 3c 26 47 41 bd
       -0.08889614 -0.076122895 0.026058966 -0.047186993
000100 3b f9 b3 3c ea 9d 17 bd b8 a7 e3 3c 7d 12 91 bd
       0.021969428 -0.037015833 0.027789935 -0.070836045
000110 b0 f7 b6 3d 1b af d6 bc 7b c8 d2 3d 9d 46 1f 3d
       0.089339614 -0.026206544 0.10292145 0.0388857
000120 9b b3 df 3d f2 3f 02 3c df 38 f0 bd 82 21 78 bd
       0.10922929 0.007949816 -0.11729597 -0.06057883
000130 59 92 57 3d 8c de a3 3d 2a 15 71 bd b3 3f b2 3d
       0.052629802 0.08001432 -0.058858074 0.08703556
000140 08 76 87 bd 4d 58 80 3d 75 5a 04 bd e7 ea c4 3c
       -0.066143095 0.06266842 -0.03231283 0.024037791
000150 4f d9 e8 bb 2a 1f d7 3d 77 67 e4 bc 8c d9 d2 3c
       -0.0071059833 0.10503991 -0.027881367 0.0257385
000160 30 4c 5c bb 59 85 c2 3d 1e 64 3d bd 18 f5 c6 3d
       -0.0033614747 0.0949809 -0.046238057 0.09714717
000170 7e 72 75 bd f7 b6 56 bd 16 c6 2a bd d2 5b 2d 3d
       -0.05992364 -0.052420583 -0.041692816 0.042323895
000180 68 85 27 3d 7a f4 2e bd 6d 71 42 bb 44 c1 be 3d
       0.04089871 -0.04271362 -0.0029669658 0.09314206
000190 0b a0 d5 3c 76 82 d8 3c 08 78 8a bd 83 11 00 bd
       0.026077291 0.026429396 -0.067611754 -0.0312667
0001a0 0e c4 aa bd 79 27 c9 3d 4e 4f 8e 3d e6 be 9b bd
       -0.08338176 0.09821982 0.0694872 -0.0760477
0001b0 e4 6c c3 3b 56 2f d0 bd 65 1f e9 3d 1c 86 22 bb
       0.0059639085 -0.101652786 0.11382941 -0.0024799174
0001c0 40 6e 01 3e e2 02 bf bd f5 a9 cc 3c 1c db 08 3c
       0.12639713 -0.09326722 0.024983386 0.008353021
0001d0 64 31 8e bd 78 98 97 3b 01 77 b3 bd 6c b9 f8 3d
       -0.06943014 0.00462633 -0.087629326 0.121447414
0001e0 e0 e7 f6 bc 45 4c f8 3d b3 0b ee 3d de dd 46 bb
       -0.030139863 0.12123922 0.11623325 -0.0030344645
0001f0 bd c4 a7 bd 0e a8 07 3e 86 a1 a5 bd 80 c7 b1 3d
       -0.08191822 0.13247702 -0.08087449 0.0868063
000200 7f 66 dd 3d b1 96 87 3c 37 f5 a5 bb 40 36 69 3d
       0.10810565 0.016551347 -0.0050646323 0.056936502
000210 12 d2 ed bd d5 9a a4 3d f2 15 c5 bd b9 18 b8 bc
       -0.11612333 0.08037344 -0.09623326 -0.022472726
000220 80 50 1c 3d a4 9c d2 bd f2 4e b7 3d 93 e8 46 3a
       0.03816271 -0.10283783 0.089506045 0.0007587757
000230 65 ea f9 bd 5f 2d 23 bd 16 7d 13 3d 87 84 b5 bd
       -0.1220291 -0.03983819 0.036007963 -0.08863168
000240 15 0c 8e 3b 84 06 90 3d 07 7d 3f bc fa 4d f6 bb
       0.0043349364 0.07032493 -0.011687524 -0.0075166197
000250 3c df b5 3d e8 de ee 3d 60 1d 06 be 7d e6 e2 bd
       0.08880469 0.1166361 -0.13097143 -0.110791184
000260 b8 5e c5 3d 8d 21 73 3d 9d e0 ce 3d ac 4f eb bd
       0.09637207 0.05935817 0.10101435 -0.114898056
000270 0f 7c f9 3d e9 f2 c4 bd da 09 ee 3c 57 31 c9 bc
       0.121818654 -0.09616644 0.029057432 -0.02455966
000280 b3 b1 eb bd c5 44 fb 3d 0a 8f 2f bd 28 e6 1c bc
       -0.11508503 0.12268976 -0.042861022 -0.009576358
000290 34 0e 8a 3d 39 23 a1 3c e1 58 93 3d ea 99 69 3d
       0.0674099 0.019670116 0.07194687 0.05703155
0002a0 6e 81 f6 bd 4d d9 5f bd ef 3e ec 3d 70 0e e8 3d
       -0.120364055 -0.054650594 0.11535441 0.11330879
0002b0 9a b1 99 bc ae 73 ac 3c 5d 2e 9a 3d cb 5f 3a bd
       -0.018761445 0.021051254 0.07528374 -0.04550151
0002c0 62 66 ff 3c 24 f1 5b 3b 2f 2a b3 3d 44 d7 c7 bd
       0.03117675 0.003356048 0.0874828 -0.097578555
0002d0 74 2f fe bb c2 23 fa bb a4 38 9a bd 88 39 85 3d
       -0.0077571217 -0.007633657 -0.075303346 0.06505114
0002e0 a2 3d b4 bd d8 08 e5 3c fb 62 9c bd 82 7d 56 3c
       -0.08800818 0.027958319 -0.076360665 0.013091447
0002f0 37 08 8f 3d 6a 27 d4 3d ec 6f b4 3b 78 c5 03 be
       0.06983989 0.1035908 0.005506506 -0.12868297

inference_model.rnn.bias_hh_l0 f4 [192]
000000 78 40 39 3d ed 0e 89 3d e6 83 d4 bd 90 d1 e2 bc
       0.045227498 0.066923 -0.1037672 -0.027687818
000010 10 83 c7 bd 92 6e 05 bd bb fe a1 bd ad 00 ce 3d
       -0.09741795 -0.03257615 -0.07909914 0.10058723
000020 ec 54 a5 3d bd e7 2e bd b3 59 c4 3c 67 12 7b bd
       0.08072838 -0.04270147 0.023968553 -0.061296847
000030 d2 7b 49 3d 9f a3 b7 bd 7e 2d 4c 3d 34 e7 90 bd
       0.04919035 -0.08966755 0.049848072 -0.070753485
000040 20 ca 51 bd 7b 33 47 bc 72 65 b9 3d 74 44 d3 3c
       -0.051218152 -0.01215827 0.09052552 0.025789477
000050 20 0a 9c bd 19 d9 6e 3d 35 78 e0 bd 18 03 b4 3c
       -0.07619119 0.05831251 -0.10960428 0.021974131
000060 59 6f ea 3c 18 96 fb bd 86 8d 72 3b 32 22 77 3d
       0.028617548 -0.122844875 0.0037010624 0.060335346
000070 3b 25 c1 3d 29 b5 09 3e 41 0c 7c 39 19 b3 fa bc
       0.09430929 0.13448013 0.00024037158 -0.030602979
000080 84 a0 42 bd 1b 29 b2 3b df 91 e1 3d d9 17 90 bc
       -0.04751636 0.005437029 0.11014151 -0.017589496
000090 c9 27 54 3d 2f ba 48 bc 3c 01 97 bd 61 c8 eb 3d
       0.051795755 -0.012251421 -0.07373282 0.115128286
0000a0 b6 07 ff bd 84 19 c5 3d 99 0b f8 3d 4a 55 b3 bd
       -0.124526426 0.09624007 0.12111587 -0.08756502
0000b0 ee 54 d3 bd 98 90 34 3d 33 1a d3 bd e9 94 3c 3d
       -0.103189334 0.044083208 -0.103077315 0.04604045
0000c0 0f 3b 7a bd 46 9f ed 3d 92 cc 0b 3d 56 f4 a5 bd
       -0.06109148 0.116026446 0.03413064 -0.08103244
0000d0 c1 af a0 3d ee 38 03 3e b8 f0 71 3d b4 17 de 3b
       0.078460224 0.12814686 0.059067458 0.006777728
0000e0 cf 7b 05 be f8 38 84 3d 1d bb 9c 3d cb d7 c1 3d
       -0.1303551 0.064561784 0.076528765 0.09464987
0000f0 28 2b eb bd 6c b8 81 bd 8d 66 7e 3d 8d a7 94 bc
       -0.11482841 -0.06334004 0.06210952 -0.0181463
000100 68 6e bb bd a6 0f 55 bd 36 f5 ad bd a8 91 40 bd
       -0.09151918 -0.052016877 -0.08494036 -0.04701391
000110 24 7e b0 3d c5 d4 47 bb d1 ab eb bd 27 23 d7 bd
       0.086178094 -0.003049181 -0.11507381 -0.10504752
000120 89 25 94 3d 52 ba 24 3d 17 80 31 bd 49 b4 b4 bd
       0.07233722 0.04021675 -0.043335047 -0.08823449
000130 e2 0e e4 3d 74 63 db bc 0b c9 b1 bd 93 53 6a bc
       0.11135651 -0.026780821 -0.08680924 -0.014302152
000140 6e d5 5e 3b 8b 2e 25 bd f5 5c 46 bd 47 8f 2a bd
       0.0034001726 -0.04032759 -0.048428494 -0.041640546
000150 3a 02 35 bd 0d 84 8e 3c 36 e6 cc 3d 39 7a 11 bd
       -0.044191577 0.017396951 0.10004847 -0.03551695
000160 03 bc 03 bd d7 21 e0 3d 5d fa 02 bc f0 d0 d2 3d
       -0.032161724 0.109439544 -0.007994262 0.10293758
000170 1c 32 a8 3d e1 7c e8 bc b6 a5 fc bc c2 27 4f 3d
       0.082126826 -0.02837986 -0.030840736 0.050575025
000180 9a 32 a1 3c 04 5d 9d bb aa f3 5c 3d 66 0d 98 bd
       0.019677449 -0.004802348 0.053943314 -0.074244305
000190 f6 da c1 3d ce 5b 53 bd d9 5c fe bc 77 6d 37 bd
       0.094655916 -0.051601224 -0.031050133 -0.04478213
0001a0 54 ed a6 38 b7 34 82 3c 30 b8 8d 3d 6c d2 c4 bb
       7.9597026e-05 0.015894277 0.069198966 -0.0060065296
0001b0 93 ea a9 bd 53 03 40 bd c4 80 2b bc b0 53 ee 3d
       -0.082966946 -0.04687817 -0.010467712 0.11637056
0001c0 8b 8b 45 3d a9 83 84 3d b9 3c f2 bd f8 7f e7 bd
       0.04822878 0.06470425 -0.11827988 -0.11303705
0001d0 58 cb 5c bb 6b 95 54 3d 09 14 4d bb e4 e1 af bd
       -0.0033690538 0.05190031 -0.003129246 -0.08588007
0001e0 3d 0f 98 3d 1a 9e b4 3c d5 ee d0 3d a6 50 88 3c
       0.074247815 0.022048045 0.102018036 0.016640019
0001f0 1d 0a a9 3d c7 f7 96 3c 20 5b ca bd 6c c3 ae bd
       0.08253882 0.018428696 -0.09880662 -0.085333675
000200 1e 49 d7 bd 5b e5 96 3c ff f7 5b 3d 21 c1 a4 3d
       -0.10511993 0.018419912 0.053703304 0.08044649
000210 6f 91 91 bd ab db 9e bd 8c af 9b 3d bb 36 b1 bd
       -0.071078174 -0.07756742 0.07601842 -0.08653017
000220 cf 85 b7 3d f8 97 7d bd d0 3a 5c 3d f2 5f 9d bd
       0.08961069 -0.061912507 0.053767025 -0.07684316
000230 fc 8f e4 3d ba 2d 87 3d bd 34 7b 3d 61 bf a0 3b
       0.11160275 0.066005185 0.061329592 0.0049056266
000240 db 5f 07 3e bc 8b 3d bd 8a 17 74 3d 9b 56 fa bd
       0.1322016 -0.04627584 0.05959276 -0.1222355
000250 0f f9 6e bc f1 08 f5 3d 94 f0 d1 bd 1b 39 0d bd
       -0.014585747 0.11964596 -0.10250965 -0.03447829
000260 32 fb d2 bd 08 cc a3 bc 97 5c a9 bd da d0 3a bd
       -0.10301818 -0.01999475 -0.08269613 -0.045609333
000270 92 5f d5 bc af 08 09 3e f3 61 b5 3d 0a 7e 1b bd
       -0.026046548 0.13382219 0.08856573 -0.037961997
000280 0f 60 c1 bc 7c 66 49 bd e3 d9 52 3d 9c 41 c5 bd
       -0.023605375 -0.049170002 0.051477324 -0.096316546
000290 99 e1 18 bc c5 6a 01 3c e5 f2 a4 bd 04 6d 18 bd
       -0.00933113 0.007898991 -0.08054141 -0.03721334
0002a0 9a 1d c0 3d 51 2c 23 3d f6 87 2e bd 6f ec 3e 3d
       0.09380646 0.039837185 -0.04261013 0.0466122
0002b0 00 a3 c9 bd b0 26 b3 bd 24 7e 5d bd 49 8f e8 3c
       -0.09845543 -0.087476134 -0.054075375 0.028388636
0002c0 c6 96 42 bc 10 5e a0 bd 0a 83 f5 3d 7c 46 d2 ba
       -0.0118767675 -0.07830441 0.11987884 -0.0016042734
0002d0 54 44 f4 3c 71 fc a1 3d c1 93 dd bd b3 02 24 bd
       0.029817738 0.079094775 -0.108191974 -0.040041637
0002e0 f1 b3 be 3c bc f2 a9 b9 c8 c2 82 3b 5a 46 be 3d
       0.023279162 -0.00032415043 0.003990505 0.09290762
0002f0 50 4d 31 3d 74 e3 d3 bd 8c 70 af bd af db 53 bd
       0.04328662 -0.103461176 -0.085663885 -0.05172318

inference_model.rnn.weight_ih_l1 f4 [192, 64]
000000 b6 ed b2 bd 77 83 42 bd 61 26 c5 bd 7e 33 e6 3d
       -0.08736746 -0.047488656 -0.09626461 0.1124029
000010 70 02 7f 3d 95 16 0b bd c3 86 26 bd 48 fd 30 bb
       0.062258184 -0.033957083 -0.040655863 -0.0027006436
000020 d8 89 5b 3c 1c 8a 80 bd b2 d5 56 3d c3 a3 c2 3d
       0.013399564 -0.06276342 0.05244989 0.09503891
000030 34 20 0f bd 45 df aa bd e7 74 bb 3d 4d 5e 4c bd
       -0.03494282 -0.083433665 0.09153157 -0.04989462
000040 57 0d 95 3d e5 08 a6 3c d1 8a 15 be 25 2a b5 3d
       0.07277935 0.020267913 -0.14603736 0.08845929
000050 84 8c 4b bd b0 35 95 bd 39 41 f2 3d ae c2 dd 3c
       -0.049694553 -0.07285631 0.118288465 0.02707037
000060 c3 c2 85 3d 90 74 ee 3d 4c 50 af 3d 20 9b 97 bd
       0.065312885 0.11643326 0.08560237 -0.074026346
000070 8a 31 d8 bd 5e f1 84 3c f1 5a 86 bd da 47 e4 3d
       -0.10556324 0.016228374 -0.065603144 0.11146517
000080 61 c8 cb bd de 64 88 bd 1c 93 07 3e 23 ce b6 bd
       -0.099503286 -0.06659864 0.13239712 -0.08926036
000090 0b 83 0b bd 33 2f 41 3c 58 b3 f5 3c 46 38 d1 bd
       -0.03406052 0.011791038 0.029992744 -0.102158114
0000a0 92 7a f2 bd a9 47 0b be 67 76 af bd 87 85 28 bd
       -0.11839785 -0.13601555 -0.08567505 -0.041142967
0000b0 87 0a 0b 3e bc dd b4 3d 0a e1 d9 3d 8a 35 63 3d
       0.13578235 0.08831355 0.10638626 0.05547098
0000c0 c7 d0 6f bd 9e ca 23 bc 13 d7 a9 3d b2 06 b8 bc
       -0.058548715 -0.009997038 0.08292975 -0.02246413
0000d0 99 4a 23 bd 41 84 72 3d c1 5e 84 3d e6 10 9c 3d
       -0.039866064 0.05920816 0.064633854 0.076204106
0000e0 e6 6c 7e 3d 35 fa aa 3d 19 3b 72 bd 1c 93 f0 3d
       0.062115572 0.083485045 -0.05913839 0.11746809
0000f0 80 91 99 bd 3d 37 94 3d e4 25 54 bd 7e 29 62 3d
       -0.07498455 0.07237098 -0.051793948 0.05521535
000100 ab cc d4 bd e9 bb 32 3d d3 d3 2b 3d 42 bb b6 bd
       -0.103906 0.043636236 0.04195006 -0.08922435
000110 d7 b4 d4 bd 48 23 68 3d 63 0e e9 bc 1a 62 05 be
       -0.10386055 0.05667427 -0.028449243 -0.13025704
000120 02 12 9d bc 25 e6 6b 3d 6d b7 87 3d 76 e1 86 3d
       -0.019173626 0.05759253 0.066267826 0.06585972
000130 b6 d1 14 3e 88 3a 97 3d c8 42 fd 3c 2c f6 4f 3c
       0.14533123 0.07384211 0.030915633 0.012692969
000140 a2 cc f2 3d 43 9e 5c bd e2 46 13 be 06 6d 8d bc
       0.11855437 -0.053861868 -0.14382508 -0.0172639
000150 98 51 84 3d f4 de 1f bd 76 6f 65 3d 9c 19 aa 3d
       0.06460875 -0.039030984 0.0560145 0.08305666
000160 12 7e 91 bc e8 8c 06 3e 2a 48 49 3d 49 d6 a5 bd
       -0.01776031 0.13139689 0.049141087 -0.08097512
000170 34 22 c8 bd a7 91 ae 3c 6c 75 48 bd 0f 61 57 3c
       -0.09772149 0.021309687 -0.048940107 0.013145699
000180 c3 4e aa bc b3 ea fd 3b 7b 5b 14 3e 6c cf 58 bd
       -0.02078951 0.0077489256 0.14488022 -0.052932188
000190 d8 91 b2 bc 77 0d 72 3d 2d 28 10 3d cc 61 d1 3c
       -0.02179806 0.059094872 0.035194565 0.025559328
0001a0 6d 99 8c 3c 68 1e b0 3d 95 6e 81 bd 4c 00 04 3c
       0.017163003 0.085995495 -0.0631992 0.008056711
0001b0 4c a3 07 3c 48 a5 09 3e 8d fa b8 bd 22 15 b2 3d
       0.008278679 0.13441956 -0.09032164 0.08695437
0001c0 49 e8 8b 3d e8 93 ae bd 2a 2c 97 bc db 85 4b bd
       0.06831414 -0.08524305 -0.018453676 -0.0496882
0001d0 36 89 6c 3c 7e 1e 8c 3d e3 77 ac bc b8 16 1d bd
       0.0144370105 0.068417534 -0.02105326 -0.038351744
0001e0 25 67 f2 bb 37 32 58 3c ac 2d b7 3c d8 be 88 bd
       -0.0073975497 0.013195566 0.022360645 -0.066770256
0001f0 b9 c0 b9 bd d0 5a 3a 3d a1 86 1d 3d f0 34 ae bc
       -0.09069962 0.04549676 0.03845847 -0.021265477
000200 e6 d6 36 bd 30 a9 8f bd 11 63 e7 3c 1d 85 65 bb
       -0.044638537 -0.07014692 0.02824548 -0.0035021969
000210 f4 05 b8 3d 6c 9f b5 bd 44 11 0b 3c 99 a8 97 3d
       0.089855105 -0.08868298 0.008488003 0.07405204
000220 9b b0 e7 3d 80 3c 9d bd ff e1 9b 3d 99 31 b9 bd
       0.11312982 -0.07677555 0.07611465 -0.09042663
000230 30 e7 f0 3c ba c6 cf bb f0 0d 54 bc 09 85 5a bc
       0.029407114 -0.0063408287 -0.012942776 -0.013337382
000240 f1 ca b3 bd 88 66 87 3d 9e fc 46 3c f9 a4 e8 bb
       -0.087789424 0.06611353 0.01214519 -0.0070997444
000250 ec ed d4 3c 8a eb 98 bd c7 8d c0 bd 28 04 e6 3d
       0.025992356 -0.074668005 -0.09402042 0.112312615
000260 dd ec a8 3d 61 44 44 bd d7 28 62 bd 21 e0 07 be
       0.08248303 -0.047916774 -0.05521473 -0.13269092
000270 1c 92 73 bd 20 aa 5e 3d 55 03 93 bd 12 c0 21 bd
       -0.059465513 0.054361463 -0.0717837 -0.039489813
000280 6f 6c 1c be 58 7c de 3d 6a 7b 66 3d 47 d7 d1 bd
       -0.15275739 0.108635604 0.05627004 -0.10246139
000290 33 11 59 bd d7 8a 0b 3e 04 d8 7e 3d 1c b2 5a bd
       -0.052994918 0.13627182 0.062217727 -0.053392515
0002a0 fc 5e 86 bd 7d 47 d3 bc 2a 48 63 bc 01 c5 41 bd
       -0.065610856 -0.025790924 -0.013872186 -0.04730702
0002b0 cf 96 f4 3d e1 ab c1 bc 44 32 e2 bc b9 56 f5 3c
       0.11942827 -0.023641529 -0.02761186 0.02994858
0002c0 bc a5 fe bc 14 85 89 bd bb 81 af bc bb 39 8e 3d
       -0.031084888 -0.06714836 -0.021424165 0.06944605
0002d0 ed 02 1a 3e 42 f9 b1 3d ba f1 8c 3d 7d dd dc bc
       0.15040179 0.0869012 0.06882043 -0.026961083
0002e0 70 43 5e 3c a4 90 18 3e aa 6a c9 3d 33 40 ee 3c
       0.013565883 0.14898926 0.09834798 0.029083347
0002f0 41 ad db bd 0d d3 85 3d 72 40 f0 bc ac 4f 28 bd
       -0.10726405 0.06534395 -0.029327605 -0.041091606
000300 73 1c 91 bd 3a 58 87 bd e2 6c a4 3d 2c 22 f7 bc
       -0.070855044 -0.06608625 0.0802858 -0.030167662
000310 1b 9a 88 bd e2 3e 88 bd f0 82 c6 bd 63 75 1a be
       -0.06670018 -0.06652619 -0.09692943 -0.15083842
000320 25 79 d3 bb 70 a3 2b 3c 0e 6b c5 bd 48 e0 4f 3c
       -0.0064536505 0.010475978 -0.0963956 0.01268775
000330 5b 53 7b 3d 3a d6 ad bd 02 60 9a 3d f3 c5 ae b9
       0.06135879 -0.08488126 0.07537843 -0.0003333535
000340 7d 07 95 3c fa 50 8a 3d 4c ca 91 ba e3 07 01 be
       0.018192047 0.06753726 -0.0011122911 -0.12600665
000350 94 bb a1 bd b7 87 44 3d 9e 91 ee 3d b9 3e 25 bd
       -0.07897106 0.04798099 0.11648868 -0.04034302
000360 52 7c 5e 3d 7e 64 df 3c 06 25 32 3d 8b ef 33 3c
       0.05431778 0.027269598 0.04349234 0.010982404
000370 8f d9 b2 bd c7 f3 b4 3d d9 92 85 3c ac 79 a5 bd
       -0.08732902 0.08835559 0.016305374 -0.08079848
000380 10 01 06 be 90 a2 84 bd d1 77 6e 3d ba f0 ba bd
       -0.13086343 -0.06476319 0.058219735 -0.09127946
000390 13 eb a8 3d c0 1b c4 bd e3 b1 1b 3d 42 87 d4 bc
       0.08247962 -0.095756054 0.038011443 -0.025943402
0003a0 a6 1e 48 3c ce f7 d6 bd b5 e0 09 3d 40 05 16 3e
       0.012214338 -0.10496484 0.033661563 0.1465044
0003b0 a9 a3 9f bd 5b be 0d bd a3 9d a2 3d e3 01 03 be
       -0.077948876 -0.034605365 0.07940223 -0.12793688
0003c0 ac 4f 43 bd b0 da a9 bc bb ac cb bd 78 d7 8a 3c
       -0.047683403 -0.020734161 -0.09945055 0.016948447
0003d0 12 1c a9 bc 20 46 69 bd c4 5c 01 bc 82 94 02 3d
       -0.020643268 -0.056951642 -0.007895652 0.03187991
0003e0 22 aa a0 bc 20 ff 2c 3c 29 b5 0e 3e 13 df c7 3d
       -0.019612376 0.010558873 0.13936295 0.09759345
0003f0 a3 09 23 3d 06 3e bf bd 46 d0 a9 bd c1 09 a8 3d
       0.039804112 -0.09338002 -0.08291678 0.082049854

inference_model.rnn.weight_hh_l1 f4 [192, 64]
000000 71 86 8c 3b ee a9 b0 3d dd e6 86 bd 47 ee e7 bd
       0.0042884876 0.086261615 -0.065870024 -0.11324745
000010 47 45 01 3e 1b c4 35 bc a2 3c 36 3c a3 5b 01 bc
       0.12624083 -0.0110941185 0.011122854 -0.007895383
000020 cf 7f d0 bd d8 57 40 3d 3d 7d c0 3d 8e c2 80 3d
       -0.101806276 0.046958774 0.09398887 0.06287108
000030 73 f0 c7 bd d5 08 54 bd 91 d6 01 3e b7 37 af 3d
       -0.09762659 -0.051766235 0.12679507 0.08555549
000040 0f 6c 76 3a 28 f4 1a be 23 6b bc bd 8d 9a 49 3d
       0.0009400257 -0.151322 -0.09200122 0.049219657
000050 8c 16 c9 bc a6 26 a0 bd 23 83 b0 3a 96 99 d9 3c
       -0.024546884 -0.078198716 0.0013466816 0.026562493
000060 6c b0 48 3d eb 64 f9 3d 8b 53 e8 bd 0e b8 b2 3d
       0.048996374 0.12177452 -0.113440596 0.08726512
000070 b6 2c 74 3d 89 77 c0 3d ae 43 12 3c 89 79 b5 bd
       0.059612952 0.093977995 0.008927269 -0.088610716
000080 73 ca 5f 3d 91 13 c2 3c 6f de a8 bd 7b e4 be 3d
       0.05463643 0.02369097 -0.08245551 0.09320923
000090 49 02 a5 3d 3d 26 16 3d 0f 73 8d 3d 85 59 3b 3c
       0.080570765 0.03665756 0.06906711 0.011434917
0000a0 75 b4 9e 3d e7 c1 cf 3d 1c 80 0d 3e b5 cc e9 bd
       0.07749263 0.10144406 0.13818401 -0.11415998
0000b0 60 41 d2 3c 8f 51 6e 3b 0e 81 94 bd 5a d7 ac bd
       0.025665939 0.003636453 -0.07251178 -0.084395126
0000c0 7e a2 41 3d 09 6e e7 3b ea cb 79 bd ba 49 8c 3d
       0.047274105 0.0070626778 -0.060985483 0.0685
0000d0 da 6d 8a 3d 6a d3 68 3d f4 9b bf bd 65 f5 1b bc
       0.06759234 0.056842245 -0.093559176 -0.009518956
0000e0 91 52 f2 bd 1e 8f ac 3c 1d 8d 35 3d 33 9b 40 bd
       -0.118321545 0.021064337 0.04432403 -0.04702301
0000f0 7d c9 e3 3c c0 34 16 3d fd 6c b0 3d 42 62 b6 bd
       0.027806038 0.0366714 0.08614538 -0.0890546
000100 bb d3 c6 bd 40 05 22 bd 34 29 bf ba c6 01 f6 bd
       -0.09708353 -0.039555788 -0.0014584423 -0.12012057
000110 52 95 4d 3c 12 18 e7 bd f9 a3 d8 3b a0 c6 b0 bd
       0.012547808 -0.11283888 0.006611344 -0.08631635
000120 c9 35 c2 bd bc 64 f9 3b 98 7d 63 3d 8f d8 55 bd
       -0.09482915 0.0076108854 0.055539697 -0.05220848
000130 60 51 00 3d f6 9d dc 3c b7 3c ec 3d d1 74 bb bd
       0.031327605 0.02693079 0.11535018 -0.0915314
000140 ef b0 bc 3d cb 5c 93 bd ac 4f ea bc f0 e9 de bd
       0.09213435 -0.07195433 -0.028602444 -0.10884464
000150 63 af 4c bc 7a e2 06 3e 84 23 a3 bd 9e bc 5f bd
       -0.012492987 0.13172331 -0.079657584 -0.05462324
000160 a3 fc 05 bd 73 45 04 3d 3a 37 b3 3c 40 01 18 3c
       -0.032711636 0.032292794 0.02187692 0.009277642
000170 4e fc f7 3d a5 65 56 bd 56 19 f1 bd 1d fa 94 3c
       0.1210867 -0.05234303 -0.117724106 0.01818567
000180 58 47 77 3c 5e d6 9d bd 0e e8 77 bd 24 10 8b bd
       0.015092693 -0.07706903 -0.06052404 -0.06790188
000190 06 95 87 bd 89 fc 97 3d ad b3 38 bd 78 6f 87 3d
       -0.06620221 0.07421214 -0.045093227 0.06613058
0001a0 b4 19 6f 3d f3 7a 08 bd fb d0 0b 3e 51 ea b8 bd
       0.05837412 -0.03332038 0.13653938 -0.09029067
0001b0 a4 43 84 bc 60 69 4a 3d 25 5e 0b 3d 21 9c 72 3c
       -0.016145535 0.0494169 0.03402533 0.014807732
0001c0 c2 8a 08 3d 2f 65 84 bd 77 a4 90 bd 91 35 b8 3d
       0.033335455 -0.06464612 -0.07062619 0.08994592
0001d0 50 ef a5 bd e2 d9 9e 3d 59 2c 09 be 37 c3 85 bd
       -0.08102286 0.077564016 -0.13395824 -0.06531375
0001e0 ee 6e 9b 3d ce 32 b6 bc 15 4c 5a 3d c9 77 f5 3d
       0.075895175 -0.022241022 0.053295214 0.11985738
0001f0 03 ac bd bd bf 15 0f be 08 b0 52 3d ea 83 21 3d
       -0.09261324 -0.13973139 0.051437408 0.039432444
000200 8f 7d 1f 3d b6 23 44 3d 23 15 a5 3d 68 7c bc 3d
       0.0389381 0.04788562 0.08060672 0.09203416
000210 cc 9d f2 3d 6e c8 dc bd 1a 70 02 3d 40 2b ef bd
       0.118465036 -0.107804164 0.03184519 -0.11678171
000220 98 ae 09 3d d2 ff f6 bd 3e c0 ad bd aa 81 81 3d
       0.03361377 -0.120605126 -0.08483933 0.063235596
000230 2c 05 24 bd 37 27 96 bd 31 e8 99 bc d0 7a 82 3d
       -0.040043995 -0.073316984 -0.018787475 0.06371081
000240 db 65 e7 3d f4 6f 05 be 5c 76 dc bd 02 ed 00 bc
       0.11298724 -0.13030988 -0.10764763 -0.007869007
000250 29 10 a1 bd 4a 6c 49 3b d1 9e d3 3b 4a db bb bd
       -0.078644104 0.0030734711 0.0064581414 -0.091726854
000260 e0 bd 15 be e7 0d 28 bc 2b 76 c5 3d ca 05 3c bd
       -0.14623213 -0.010257221 0.096416794 -0.04590396
000270 ee 92 25 bd 78 e4 b2 3d 21 af 4b bd 77 b2 9d 3c
       -0.040423326 0.08734983 -0.049727563 0.019250138
000280 b0 ea a9 bd 0d 6f d2 3d 68 89 59 bd c6 38 09 3e
       -0.08296716 0.102750875 -0.053109556 0.13400564
000290 fc 5c bb bd 19 76 cf 3a b0 e9 b2 3d 98 c4 8d bc
       -0.09148595 0.0015828043 0.087359786 -0.017305657
0002a0 8f dc 1d 3d 5d 06 74 3d 7f 92 bf 3d d0 97 dc bd
       0.03854042 0.05957638 0.09354114 -0.107711434
0002b0 85 ee 17 3d 85 c8 09 bc 8e da 1a be 24 f9 94 bd
       0.037092704 -0.008409624 -0.15122434 -0.07274082
0002c0 00 58 39 3b fe 8b 78 3c 61 4e 11 bd ed 85 cc 3c
       0.0028281212 0.0151700955 -0.03547514 0.024966205
0002d0 2f 30 98 3d b7 9d 7d bd 32 bc 7b bd 2f ec 28 bd
       0.07431065 -0.061917987 -0.061458774 -0.041240867
0002e0 9a 91 11 be f7 84 92 3d 19 0c 0a be cf a6 fb bb
       -0.14215699 0.07154267 -0.13481177 -0.0076797972
0002f0 aa d0 c0 ba fa c0 91 3c 62 02 74 3d a5 fb 92 3b
       -0.0014710624 0.017792214 0.059572585 0.004485565
000300 df 70 46 bd a8 80 a6 3d 13 4d bf bc f9 9a 38 bb
       -0.048447486 0.08130008 -0.023352182 -0.0028168543
000310 df e5 91 3d 7e 49 aa bd 22 99 14 be 04 63 cc bd
       0.071239226 -0.08314799 -0.1451154 -0.09979823
000320 dd 83 14 3d 34 66 f1 3c 82 fa 30 bd dc ef 58 bd
       0.036258567 0.02946768 -0.043207653 -0.052963123
000330 7f b1 bd 3c 09 c5 85 bd d3 4a 20 3d d2 27 95 3d
       0.023155926 -0.06531722 0.039133858 0.07282986
000340 e0 a4 ce 3d 37 ec d3 bd 61 96 ca bd b4 58 99 3d
       0.10090041 -0.10347789 -0.09891964 0.07487622
000350 02 e1 96 bd 8f 09 97 bd d8 db 2d bd 09 04 10 3e
       -0.073671356 -0.0737487 -0.042445987 0.1406404
000360 10 31 3d bd 00 63 a2 bd bd 4c 05 3d 8c 58 cf bd
       -0.046189368 -0.07929039 0.032543886 -0.10124311
000370 49 91 50 bd 9c 95 d5 bc d7 b5 8a bb 8c 41 e7 3c
       -0.050919805 -0.026072316 -0.004233103 0.028229497
000380 d2 ea 54 3c 0d f4 4c 3d e2 c9 ec 3c 04 9a 89 3d
       0.012995439 0.050037432 0.028904859 0.06718829
000390 b1 bc e7 3c 4a a0 78 3d a4 60 7b 3d 25 98 53 bd
       0.028288217 0.06069974 0.06137146 -0.05165877
0003a0 12 64 60 3d d4 a1 34 3d cc dd 03 bd 96 3a 99 3b
       0.054782934 0.044099644 -0.032193944 0.0046761734
0003b0 ea fc aa bd c2 4b e7 bd 43 f2 12 bd 68 73 b2 bd
       -0.08349021 -0.112937465 -0.03587557 -0.08713418
0003c0 77 af de bc dc d1 b5 3d 1f a4 85 3b 1b 93 09 3b
       -0.027183278 0.08877918 0.0040784026 0.0020992223
0003d0 e3 ac aa bc e9 8d c6 3d d7 49 99 bd 68 09 12 be
       -0.020834392 0.09695036 -0.07484787 -0.142614
0003e0 9f 24 84 3d ff 6b bf 3d de e6 a5 3d bd eb e1 3d
       0.064522974 0.093467705 0.08100675 0.11031292
0003f0 bb 89 99 3d 22 a7 b2 bd 73 fe 00 3c 2f 7c 15 bd
       0.07496973 -0.08723284 0.007873165 -0.036495384

inference_model.rnn.bias_ih_l1 f4 [192]
000000 76 c1 b1 bc 18 c0 ca bc 8f 67 bd bd b5 c1 46 3d
       -0.021698695 -0.0247498 -0.09248268 0.048524577
000010 5e 88 94 3c c0 00 af 3c 8b 2f 0b 3e bb 45 b8 3d
       0.018131431 0.021362662 0.13592355 0.08997675
000020 b6 d3 8a 3d 76 db e3 3d 52 e9 e5 3c c8 ce b9 bb
       0.06778662 0.11125843 0.028065357 -0.005670402
000030 bc e0 59 bc dc ea f9 3c b2 b0 7e 3c 02 4a d1 bd
       -0.01329821 0.030507497 0.015545057 -0.10219194
000040 c9 eb 47 3c e1 6f 99 3d b8 5e 7c bc 5e e3 86 bd
       0.012202212 0.07492042 -0.015403442 -0.065863356
000050 0d da a0 3c 31 2c a1 3b fa fd 17 3e 23 16 ac 3c
       0.019635225 0.004918598 0.14842978 0.02100665
000060 55 53 70 3d 57 2d ee 3c c0 89 04 3e 7a b0 67 bd
       0.05867322 0.029074354 0.12943172 -0.056564786
000070 90 a8 86 bd f1 99 0c bd 33 2b e6 bc c1 5e c1 3d
       -0.065751195 -0.034326497 -0.02809677 0.09441901
000080 23 28 4b 3c 6e 1e af 3d 5e 9f 12 3d 64 dd aa 3c
       0.012399706 0.08550726 0.035796516 0.02085752
000090 fa 80 c9 bc 69 ce a8 3b 17 d8 73 3d fb dc 8a bd
       -0.024597634 0.005151559 0.05953225 -0.0678043
0000a0 58 93 aa bd 46 4a 54 3c a1 62 84 3d b1 69 6d 3d
       -0.08328885 0.012957161 0.064641245 0.057962123
0000b0 c5 c3 ef bc b6 3b 0a 3e 04 71 8f bd c3 0f fa 3d
       -0.029268155 0.1349934 -0.07003978 0.122100376
0000c0 36 8f 0d bd 23 1a 63 3b e2 dd 9d bd 90 64 7c 3d
       -0.034560405 0.003465303 -0.077083364 0.06161934
0000d0 33 0e 81 3d c9 f8 ad 3d 73 81 9d bd b5 ab 4c 3d
       0.063015364 0.08494718 -0.07690706 0.04996844
0000e0 15 cf ff 3d b1 2a ea bc 12 65 f1 3a 60 d0 29 bc
       0.1249067 -0.02858481 0.0018416962 -0.010364622
0000f0 02 1d 0c 3d ce 66 4d 3d ac b3 b1 3d 50 1e ad 3d
       0.03420735 0.05014687 0.08676848 0.08453047
000100 91 37 a8 3c 73 5c 37 be 89 4d 0f 3d ef 86 fc bd
       0.020534309 -0.1790636 0.034986053 -0.12330424
000110 9b 1b de bc c4 fb 71 3d b1 f2 06 3d be 7e 93 bd
       -0.027112773 0.059077993 0.032946292 -0.072019085
000120 a0 a2 39 be b0 49 1b 3d 4d e4 b7 bd 14 8c 67 3c
       -0.18128443 0.03791207 -0.08979092 0.014132518
000130 77 5a 58 bd a4 44 01 bd 34 a0 d5 bd 3b 4d 9a bc
       -0.05282065 -0.0315596 -0.10430947 -0.018835654
000140 01 c1 1b be 77 6d 7f 3c 28 be e8 bc 44 95 14 bd
       -0.15210344 0.015590063 -0.028410986 -0.036275163
000150 4e e8 b0 bd 3f 49 c4 bd b3 33 92 3c 8e ba 75 3d
       -0.086380586 -0.09584283 0.017846918 0.059992366
000160 d1 7f a3 bc 11 d2 00 be 6c 11 de bd 09 d7 a9 bd
       -0.019958409 -0.12580134 -0.10843167 -0.08292968
000170 ff bb 04 be 5b ff 4d be b4 e3 b2 bd 65 bb b0 3b
       -0.1296234 -0.20116942 -0.08734837 0.005393433
000180 5d b0 09 3d 86 d5 38 be 03 af 7b 3c a3 f7 3f be
       0.03361546 -0.18050203 0.01536155 -0.1874681
000190 d0 c9 c7 3c 5b 2c 7d bd 95 3f 80 bd a7 56 ce bc
       0.024388224 -0.06180988 -0.06262127 -0.025187803
0001a0 e5 4b 9a 3c 5e 30 cd bc d6 d3 65 bd 2b 74 1b be
       0.018835017 -0.025047477 -0.056110226 -0.15181033
0001b0 c1 41 18 be f5 d5 1b be d6 e5 78 bc 8f 25 01 be
       -0.14868833 -0.15218337 -0.015191516 -0.12611984
0001c0 fc 6b 1c bd 0e bc 37 bb f7 69 98 3c d4 be 2d be
       -0.03818892 -0.0028035673 0.018605215 -0.16967326
0001d0 14 db 21 be 1a 20 47 be 7a 46 10 be d9 43 d0 bc
       -0.15806228 -0.1944584 -0.14089385 -0.025422977
0001e0 3f a4 00 be 46 00 5c 3a 9e 11 77 bc 94 27 37 bd
       -0.12562655 0.0008392375 -0.015079884 -0.04471548
0001f0 32 05 20 bd 22 3b da 3c b4 fb 2f be 25 e0 e1 bd
       -0.039067455 0.026639525 -0.17185861 -0.1102908
000200 c7 88 a9 bc 48 ec 07 3e b9 5e 4e 3b 5e 94 eb 3c
       -0.020695103 0.13273728 0.0031489565 0.02875727
000210 f3 60 8c bd b3 33 cf bd 40 73 16 bd b4 0d dc bd
       -0.06854429 -0.10117283 -0.036731005 -0.10744801
000220 82 1a 36 3d 4b 94 11 be ae 69 d2 3c f8 59 89 bd
       0.044458874 -0.14216726 0.025685158 -0.06706613
000230 b0 18 f2 bd 5a bb bd 3d 7b a2 aa bd 12 43 16 3e
       -0.11821115 0.0926425 -0.08331772 0.14674023
000240 af ba a0 bd 64 d9 0e be 42 3e d0 bd 8b b4 9c 3d
       -0.07848107 -0.13950115 -0.10168125 0.07651623
000250 9f 65 07 3c f1 70 ae 3d 7e 21 62 bc a4 19 73 bd
       0.008263974 0.085176356 -0.0138019305 -0.059350625
000260 a1 b4 d8 3b 6b 8b cb bd f8 65 4e 3c 32 16 9d bd
       0.0066133295 -0.09938701 0.012597553 -0.07670249
000270 d4 72 36 bc bc 62 6d 3d 6e af ef bd b5 9b fb 3d
       -0.011135776 0.05795549 -0.117033824 0.12285558
000280 fb 7e 08 3d 0a 50 2d 3d 3a 54 14 bd c7 85 13 3e
       0.033324223 0.04231266 -0.036213137 0.14406501
000290 c9 43 8a 3d 32 8f 17 3d 25 8b 48 bd f4 e7 66 bd
       0.0675121 0.037001796 -0.048960824 -0.05637355
0002a0 4c d5 ae 3d f4 46 90 3b 2a 64 6a bb 5d 5c ca bd
       0.08536777 0.0044029895 -0.003576527 -0.09880898
0002b0 8a fe 3e bc 14 4a b6 3d 0e 58 20 be dd 29 84 bd
       -0.0116573665 0.08900848 -0.1565859 -0.06453297
0002c0 a6 df a2 3d 1a f9 af bd d6 fb 9b bd 67 e8 de bc
       0.07952814 -0.08592434 -0.07616393 -0.027210427
0002d0 cc 4d 9f 3c ec 4a e2 bc 08 95 83 3d 10 79 b2 bd
       0.019446276 -0.027623616 0.0642491 -0.08714497
0002e0 fc ed 6b bc 27 eb bd bc 8d 10 5c bd 4f 7b 46 3d
       -0.014400002 -0.023183418 -0.05372672 0.04845744
0002f0 e9 61 67 bd ba 8c b9 bd 4f 41 df bb 40 43 78 bc
       -0.05648986 -0.090600446 -0.0068132053 -0.015152752

inference_model.rnn.bias_hh_l1 f4 [192]
000000 ec 0b b4 bd 6e 20 2e 3d 41 df a8 bd ff 18 bb bd
       -0.087913364 0.042511396 -0.08245707 -0.09135627
000010 c6 5d e1 3d c4 fe 14 3e d8 a8 40 bd a3 da 96 bd
       0.11004214 0.1455031 -0.047036022 -0.073659204
000020 a5 85 34 bd 69 b9 b7 bb 14 79 0b 3e 98 0f 1b 3d
       -0.044072766 -0.0056068194 0.13620406 0.03785667
000030 ae 04 d2 bd 55 1d d3 bd ff 7c a4 3d 5a 20 a0 3d
       -0.10254799 -0.10308329 0.080316536 0.078186706
000040 c7 98 d4 3d 1b 16 53 3d 90 1f 1e 38 2f 39 a2 3d
       0.103807025 0.051534753 3.769953e-05 0.07921063
000050 b7 01 63 3d ba 4b d1 bd ef 25 ff 3c 6b 77 24 bd
       0.055421557 -0.10219522 0.031146018 -0.04015295
000060 2e 3e 06 3e dc 8f 85 bd 05 63 f0 3c 6f 03 48 bb
       0.13109657 -0.065215796 0.029344091 -0.0030519625
000070 70 ed f5 3d 63 e0 f0 3d cb 66 d9 3c b5 f3 58 bd
       0.12008178 0.11761548 0.026538273 -0.052966792
000080 c9 d9 78 bc 0b 39 ce bc d9 16 1f 3d f6 ec df bd
       -0.015188643 -0.025173685 0.03884015 -0.109338686
000090 30 83 41 3d 3c 66 9c 3d cf 1b b1 3c c4 2c d8 bd
       0.04724425 0.07636687 0.021619705 -0.10555413
0000a0 96 95 17 3d 14 dc fc bb 78 4b e7 ba 93 16 ea 3d
       0.03700789 -0.007716665 -0.0017646393 0.11430087
0000b0 56 3e 63 bd ed 31 ef 3d 13 42 2b 3d 0b 6b df 3d
       -0.05547937 0.116794445 0.04181106 0.10909089
0000c0 4b d6 00 3e bb 19 da ba 4c 11 cb 3c f2 c2 46 bd
       0.12581746 -0.0016639748 0.024788521 -0.048525758
0000d0 b7 d0 fa 3d 62 4b 77 3d cd 9f 87 bd 9f 90 b7 bc
       0.122468404 0.060374625 -0.066222765 -0.022407828
0000e0 58 81 bd 3c b5 20 df 3d 16 db 15 3c 8b 66 b0 bc
       0.023132965 0.1089491 0.009146472 -0.021533271
0000f0 a9 df fc bc cf f7 e1 3b d7 03 92 3d 58 7d f3 bc
       -0.030868368 0.006895996 0.07129639 -0.029722854
000100 f3 17 00 be 80 24 d5 bd 01 64 22 be 48 d0 f2 bd
       -0.12509136 -0.104073524 -0.15858461 -0.11856133
000110 0a 2d 41 bd 41 fb ef bb 16 d5 c3 bd 4a b6 36 be
       -0.047162093 -0.007323653 -0.09562127 -0.17842975
000120 70 91 da bd 8c 3c 80 bd b4 33 92 bc 96 26 48 be
       -0.10672271 -0.062615484 -0.01784692 -0.1954597
000130 fe 1d bd bd 7d 09 20 be af c2 f9 bd 12 82 6c bd
       -0.09234236 -0.1562862 -0.12195336 -0.057741232
000140 4e 61 f3 bc ac 43 16 3d dd 05 0f be b3 e5 3b bc
       -0.029709484 0.03668563 -0.1396708 -0.011468339
000150 23 40 fd bd 22 b9 1f bd 01 16 52 bd d5 84 a6 3c
       -0.12365749 -0.038994916 -0.051290516 0.020327011
000160 bc b5 fe bd 1a ff 22 be 5b aa 2e be 0c 4c 0f be
       -0.12437007 -0.15917626 -0.17057173 -0.13993853
000170 c6 32 ee bd e8 91 b7 3c c9 19 b6 bd bd 8a 8d bc
       -0.11630778 0.02240844 -0.08891637 -0.01727807
000180 41 37 12 be 97 5e ec bd 66 c8 03 be 65 54 fe bc
       -0.1427889 -0.11541479 -0.12869415 -0.031046102
000190 fb 5d 21 bc a9 40 9c bd 95 ab 25 bd 6e 1a 2c 3d
       -0.009849067 -0.076295204 -0.040446837 0.042017393
0001a0 f0 f8 89 bd 29 78 b3 bd ca 81 77 bc 63 93 f8 bc
       -0.06736934 -0.08763153 -0.015106628 -0.030343717
0001b0 12 26 38 be 3a b0 95 3c 28 77 08 be e0 e8 32 be
       -0.17983273 0.018272508 -0.13326705 -0.17471647
0001c0 d4 ad 21 be d9 2c a1 bd 63 d8 4c be 7a 9c fe bc
       -0.15788966 -0.07869882 -0.2000442 -0.031080473
0001d0 a0 be e1 bd 39 30 ba bd e8 b8 0f be 25 1a 8f 3c
       -0.11022687 -0.09091229 -0.1403538 0.017468521
0001e0 b1 aa 10 be 7c 6f 08 be 6c 4d 86 bc 0d e3 58 bd
       -0.14127614 -0.13323778 -0.01639434 -0.052950907
0001f0 e9 a0 85 3c b0 c9 db bd d5 fb 7c bd f0 2c 0a 3d
       0.01631208 -0.10731828 -0.061763603 0.033734262
000200 3e a9 1c 3d fd 5e 31 bd b6 a4 27 3d af e9 88 3d
       0.03824734 -0.04330348 0.040928565 0.066851966
000210 6a ba fd 3d 35 58 bf 3c 6f 5e 1b be 8e fc c2 3d
       0.12389071 0.02335749 -0.15172742 0.09520827
000220 11 b9 81 3d 20 7e b2 bd 2e a0 5c bd 36 c4 81 bd
       0.06334127 -0.08715463 -0.053863697 -0.063362524
000230 56 ba 86 bb 6f 68 07 bd a2 b7 13 bd 9d db ab bd
       -0.0041115684 -0.03305858 -0.036063798 -0.08391497
000240 4a 50 cc 3c 02 cb b8 3d f1 b4 07 be 57 18 77 3d
       0.024940629 0.09023096 -0.13252617 0.060325947
000250 12 91 68 bd 1c 2c 6f 3c d9 ff fa bd 69 d8 f7 3d
       -0.056778975 0.014597919 -0.1225583 0.12101824
000260 26 c4 c3 bd ad db b7 bc 00 5c 04 be de 7e c2 bd
       -0.09558897 -0.022443617 -0.1292572 -0.09496854
000270 5b 9f 81 3c 27 e6 a6 bd e0 4d 00 be b7 9a 81 bd
       0.015823057 -0.08149367 -0.12529707 -0.06328338
000280 43 58 59 bd ba 00 98 3c 66 ae 89 3d 7f ae 2c bc
       -0.05306269 0.018555034 0.06722717 -0.01053965
000290 2c 26 c1 3a 95 be 11 3d b1 66 63 3d c0 d2 d5 bb
       0.0014736108 0.035582144 0.055517856 -0.0065253675
0002a0 c0 ab c0 bc c4 ce 79 bd 70 30 e6 bc 33 bf 68 bd
       -0.023519397 -0.060988203 -0.028099269 -0.056822967
0002b0 5d 97 83 3c b3 a4 ff 3c 35 ac 6e 3d 7f 6e 0b 3e
       0.016063387 0.031206464 0.0582697 0.1361637
0002c0 bf 86 de bd dd 43 bb bd 79 a1 e6 3c 64 5d 01 3e
       -0.108655445 -0.09143803 0.028153168 0.12633282
0002d0 5c 69 a8 bb 8f 02 ee bc 1e 32 9d 3d a8 68 9e 3c
       -0.005139513 -0.029053954 0.07675575 0.019337013
0002e0 f4 ea 05 be 2f cb cf bc 7a e3 02 bc 8e df de 3b
       -0.13077909 -0.02536544 -0.007988805 0.006801552
0002f0 00 2b dd bc 8b db a4 3d 86 69 77 3c f5 9e 70 3d
       -0.026998043 0.08049687 0.015100842 0.058745343
